<?xml version="1.0" ?>
<net name="torch-jit-export" version="11">
	<layers>
		<layer id="2" name="0" type="Parameter" version="opset1">
			<data shape="1,100" element_type="f32"/>
			<rt_info>
				<attribute name="fused_names" version="0" value="0"/>
			</rt_info>
			<output>
				<port id="0" precision="FP32" names="0">
					<dim>1</dim>
					<dim>100</dim>
				</port>
			</output>
		</layer>
		<layer id="1" name="1" type="Parameter" version="opset1">
			<data shape="1,50" element_type="f32"/>
			<rt_info>
				<attribute name="fused_names" version="0" value="1"/>
			</rt_info>
			<output>
				<port id="0" precision="FP32" names="1">
					<dim>1</dim>
					<dim>50</dim>
				</port>
			</output>
		</layer>
		<layer id="0" name="2" type="Parameter" version="opset1">
			<data shape="1,6" element_type="f32"/>
			<rt_info>
				<attribute name="fused_names" version="0" value="2"/>
			</rt_info>
			<output>
				<port id="0" precision="FP32" names="2">
					<dim>1</dim>
					<dim>6</dim>
				</port>
			</output>
		</layer>
		<layer id="3" name="412" type="Const" version="opset1">
			<data element_type="f32" shape="1, 5023, 5" offset="0" size="100460"/>
			<output>
				<port id="0" precision="FP32" names="412">
					<dim>1</dim>
					<dim>5023</dim>
					<dim>5</dim>
				</port>
			</output>
		</layer>
		<layer id="4" name="107" type="Const" version="opset1">
			<data element_type="f32" shape="1, 3, 3" offset="100460" size="36"/>
			<rt_info>
				<attribute name="fused_names" version="0" value="107"/>
			</rt_info>
			<output>
				<port id="0" precision="FP32" names="107">
					<dim>1</dim>
					<dim>3</dim>
					<dim>3</dim>
				</port>
			</output>
		</layer>
		<layer id="5" name="Constant_7962" type="Const" version="opset1">
			<data element_type="i64" shape="2" offset="100496" size="16"/>
			<rt_info>
				<attribute name="fused_names" version="0" value="38"/>
			</rt_info>
			<output>
				<port id="0" precision="I64">
					<dim>2</dim>
				</port>
			</output>
		</layer>
		<layer id="6" name="Constant_7965" type="Const" version="opset1">
			<data element_type="i64" shape="2" offset="100512" size="16"/>
			<rt_info>
				<attribute name="fused_names" version="0" value="38"/>
			</rt_info>
			<output>
				<port id="0" precision="I64">
					<dim>2</dim>
				</port>
			</output>
		</layer>
		<layer id="7" name="Constant_7968" type="Const" version="opset1">
			<data element_type="i64" shape="2" offset="100528" size="16"/>
			<rt_info>
				<attribute name="fused_names" version="0" value="38"/>
			</rt_info>
			<output>
				<port id="0" precision="I64">
					<dim>2</dim>
				</port>
			</output>
		</layer>
		<layer id="8" name="38" type="StridedSlice" version="opset1">
			<data begin_mask="1, 0" end_mask="1, 0" new_axis_mask="" shrink_axis_mask="" ellipsis_mask=""/>
			<rt_info>
				<attribute name="fused_names" version="0" value="38"/>
			</rt_info>
			<input>
				<port id="0" precision="FP32">
					<dim>1</dim>
					<dim>6</dim>
				</port>
				<port id="1" precision="I64">
					<dim>2</dim>
				</port>
				<port id="2" precision="I64">
					<dim>2</dim>
				</port>
				<port id="3" precision="I64">
					<dim>2</dim>
				</port>
			</input>
			<output>
				<port id="4" precision="FP32" names="38">
					<dim>1</dim>
					<dim>3</dim>
				</port>
			</output>
		</layer>
		<layer id="9" name="51" type="Const" version="opset1">
			<data element_type="f32" shape="1, 3" offset="100544" size="12"/>
			<output>
				<port id="0" precision="FP32" names="51">
					<dim>1</dim>
					<dim>3</dim>
				</port>
			</output>
		</layer>
		<layer id="10" name="Constant_7974" type="Const" version="opset1">
			<data element_type="i64" shape="2" offset="100512" size="16"/>
			<rt_info>
				<attribute name="fused_names" version="0" value="56"/>
			</rt_info>
			<output>
				<port id="0" precision="I64">
					<dim>2</dim>
				</port>
			</output>
		</layer>
		<layer id="11" name="Constant_7977" type="Const" version="opset1">
			<data element_type="i64" shape="2" offset="100556" size="16"/>
			<rt_info>
				<attribute name="fused_names" version="0" value="56"/>
			</rt_info>
			<output>
				<port id="0" precision="I64">
					<dim>2</dim>
				</port>
			</output>
		</layer>
		<layer id="12" name="Constant_7980" type="Const" version="opset1">
			<data element_type="i64" shape="2" offset="100528" size="16"/>
			<rt_info>
				<attribute name="fused_names" version="0" value="56"/>
			</rt_info>
			<output>
				<port id="0" precision="I64">
					<dim>2</dim>
				</port>
			</output>
		</layer>
		<layer id="13" name="56" type="StridedSlice" version="opset1">
			<data begin_mask="1, 0" end_mask="1, 0" new_axis_mask="" shrink_axis_mask="" ellipsis_mask=""/>
			<rt_info>
				<attribute name="fused_names" version="0" value="56"/>
			</rt_info>
			<input>
				<port id="0" precision="FP32">
					<dim>1</dim>
					<dim>6</dim>
				</port>
				<port id="1" precision="I64">
					<dim>2</dim>
				</port>
				<port id="2" precision="I64">
					<dim>2</dim>
				</port>
				<port id="3" precision="I64">
					<dim>2</dim>
				</port>
			</input>
			<output>
				<port id="4" precision="FP32" names="56">
					<dim>1</dim>
					<dim>3</dim>
				</port>
			</output>
		</layer>
		<layer id="14" name="32" type="Const" version="opset1">
			<data element_type="f32" shape="1, 6" offset="100572" size="24"/>
			<output>
				<port id="0" precision="FP32" names="32">
					<dim>1</dim>
					<dim>6</dim>
				</port>
			</output>
		</layer>
		<layer id="15" name="57" type="Concat" version="opset1">
			<data axis="1"/>
			<rt_info>
				<attribute name="fused_names" version="0" value="31, 32, 50, 51, 57, 704, 709"/>
			</rt_info>
			<input>
				<port id="0" precision="FP32">
					<dim>1</dim>
					<dim>3</dim>
				</port>
				<port id="1" precision="FP32">
					<dim>1</dim>
					<dim>3</dim>
				</port>
				<port id="2" precision="FP32">
					<dim>1</dim>
					<dim>3</dim>
				</port>
				<port id="3" precision="FP32">
					<dim>1</dim>
					<dim>6</dim>
				</port>
			</input>
			<output>
				<port id="4" precision="FP32" names="57">
					<dim>1</dim>
					<dim>15</dim>
				</port>
			</output>
		</layer>
		<layer id="16" name="78" type="Const" version="opset1">
			<data element_type="i64" shape="2" offset="100596" size="16"/>
			<rt_info>
				<attribute name="fused_names" version="0" value="78"/>
			</rt_info>
			<output>
				<port id="0" precision="I64" names="78">
					<dim>2</dim>
				</port>
			</output>
		</layer>
		<layer id="17" name="79" type="Reshape" version="opset1">
			<data special_zero="true"/>
			<rt_info>
				<attribute name="fused_names" version="0" value="79"/>
			</rt_info>
			<input>
				<port id="0" precision="FP32">
					<dim>1</dim>
					<dim>15</dim>
				</port>
				<port id="1" precision="I64">
					<dim>2</dim>
				</port>
			</input>
			<output>
				<port id="2" precision="FP32" names="79">
					<dim>5</dim>
					<dim>3</dim>
				</port>
			</output>
		</layer>
		<layer id="18" name="Constant_9101" type="Const" version="opset1">
			<data element_type="f32" shape="1, 1" offset="100612" size="4"/>
			<output>
				<port id="0" precision="FP32">
					<dim>1</dim>
					<dim>1</dim>
				</port>
			</output>
		</layer>
		<layer id="19" name="82" type="Add" version="opset1">
			<data auto_broadcast="numpy"/>
			<rt_info>
				<attribute name="fused_names" version="0" value="82"/>
			</rt_info>
			<input>
				<port id="0" precision="FP32">
					<dim>5</dim>
					<dim>3</dim>
				</port>
				<port id="1" precision="FP32">
					<dim>1</dim>
					<dim>1</dim>
				</port>
			</input>
			<output>
				<port id="2" precision="FP32" names="82">
					<dim>5</dim>
					<dim>3</dim>
				</port>
			</output>
		</layer>
		<layer id="20" name="83" type="Multiply" version="opset1">
			<data auto_broadcast="numpy"/>
			<rt_info>
				<attribute name="fused_names" version="0" value="83"/>
			</rt_info>
			<input>
				<port id="0" precision="FP32">
					<dim>5</dim>
					<dim>3</dim>
				</port>
				<port id="1" precision="FP32">
					<dim>5</dim>
					<dim>3</dim>
				</port>
			</input>
			<output>
				<port id="2" precision="FP32" names="83">
					<dim>5</dim>
					<dim>3</dim>
				</port>
			</output>
		</layer>
		<layer id="21" name="Constant_243" type="Const" version="opset1">
			<data element_type="i64" shape="1" offset="100616" size="8"/>
			<rt_info>
				<attribute name="fused_names" version="0" value="Constant_243"/>
			</rt_info>
			<output>
				<port id="0" precision="I64">
					<dim>1</dim>
				</port>
			</output>
		</layer>
		<layer id="22" name="84" type="ReduceSum" version="opset1">
			<data keep_dims="true"/>
			<rt_info>
				<attribute name="fused_names" version="0" value="84"/>
			</rt_info>
			<input>
				<port id="0" precision="FP32">
					<dim>5</dim>
					<dim>3</dim>
				</port>
				<port id="1" precision="I64">
					<dim>1</dim>
				</port>
			</input>
			<output>
				<port id="2" precision="FP32" names="84">
					<dim>5</dim>
					<dim>1</dim>
				</port>
			</output>
		</layer>
		<layer id="23" name="85" type="Sqrt" version="opset1">
			<rt_info>
				<attribute name="fused_names" version="0" value="85"/>
			</rt_info>
			<input>
				<port id="0" precision="FP32">
					<dim>5</dim>
					<dim>1</dim>
				</port>
			</input>
			<output>
				<port id="1" precision="FP32" names="85">
					<dim>5</dim>
					<dim>1</dim>
				</port>
			</output>
		</layer>
		<layer id="24" name="89" type="Sin" version="opset1">
			<rt_info>
				<attribute name="fused_names" version="0" value="89"/>
			</rt_info>
			<input>
				<port id="0" precision="FP32">
					<dim>5</dim>
					<dim>1</dim>
				</port>
			</input>
			<output>
				<port id="1" precision="FP32" names="89">
					<dim>5</dim>
					<dim>1</dim>
				</port>
			</output>
		</layer>
		<layer id="25" name="Constant_251" type="Const" version="opset1">
			<data element_type="i64" shape="1" offset="100616" size="8"/>
			<rt_info>
				<attribute name="fused_names" version="0" value="Constant_251"/>
			</rt_info>
			<output>
				<port id="0" precision="I64">
					<dim>1</dim>
				</port>
			</output>
		</layer>
		<layer id="26" name="90" type="Unsqueeze" version="opset1">
			<rt_info>
				<attribute name="fused_names" version="0" value="90"/>
			</rt_info>
			<input>
				<port id="0" precision="FP32">
					<dim>5</dim>
					<dim>1</dim>
				</port>
				<port id="1" precision="I64">
					<dim>1</dim>
				</port>
			</input>
			<output>
				<port id="2" precision="FP32" names="90">
					<dim>5</dim>
					<dim>1</dim>
					<dim>1</dim>
				</port>
			</output>
		</layer>
		<layer id="27" name="94" type="Const" version="opset1">
			<data element_type="f32" shape="5, 1" offset="100624" size="20"/>
			<rt_info>
				<attribute name="fused_names" version="0" value="94"/>
			</rt_info>
			<output>
				<port id="0" precision="FP32" names="94">
					<dim>5</dim>
					<dim>1</dim>
				</port>
			</output>
		</layer>
		<layer id="28" name="86" type="Divide" version="opset1">
			<data auto_broadcast="numpy" m_pythondiv="true"/>
			<rt_info>
				<attribute name="fused_names" version="0" value="86"/>
			</rt_info>
			<input>
				<port id="0" precision="FP32">
					<dim>5</dim>
					<dim>3</dim>
				</port>
				<port id="1" precision="FP32">
					<dim>5</dim>
					<dim>1</dim>
				</port>
			</input>
			<output>
				<port id="2" precision="FP32" names="86">
					<dim>5</dim>
					<dim>3</dim>
				</port>
			</output>
		</layer>
		<layer id="29" name="Constant_253" type="Const" version="opset1">
			<data element_type="i64" shape="" offset="100616" size="8"/>
			<rt_info>
				<attribute name="fused_names" version="0" value="Constant_253"/>
			</rt_info>
			<output>
				<port id="0" precision="I64"/>
			</output>
		</layer>
		<layer id="30" name="Constant_254" type="Const" version="opset1">
			<data element_type="i64" shape="3" offset="100644" size="24"/>
			<rt_info>
				<attribute name="fused_names" version="0" value="Constant_254"/>
			</rt_info>
			<output>
				<port id="0" precision="I64">
					<dim>3</dim>
				</port>
			</output>
		</layer>
		<layer id="31" name="93" type="VariadicSplit" version="opset1">
			<rt_info>
				<attribute name="fused_names" version="0" value="93"/>
			</rt_info>
			<input>
				<port id="0" precision="FP32">
					<dim>5</dim>
					<dim>3</dim>
				</port>
				<port id="1" precision="I64"/>
				<port id="2" precision="I64">
					<dim>3</dim>
				</port>
			</input>
			<output>
				<port id="3" precision="FP32" names="91">
					<dim>5</dim>
					<dim>1</dim>
				</port>
				<port id="4" precision="FP32" names="92">
					<dim>5</dim>
					<dim>1</dim>
				</port>
				<port id="5" precision="FP32" names="93">
					<dim>5</dim>
					<dim>1</dim>
				</port>
			</output>
		</layer>
		<layer id="32" name="95" type="Negative" version="opset1">
			<rt_info>
				<attribute name="fused_names" version="0" value="95"/>
			</rt_info>
			<input>
				<port id="0" precision="FP32">
					<dim>5</dim>
					<dim>1</dim>
				</port>
			</input>
			<output>
				<port id="1" precision="FP32" names="95">
					<dim>5</dim>
					<dim>1</dim>
				</port>
			</output>
		</layer>
		<layer id="33" name="96" type="Negative" version="opset1">
			<rt_info>
				<attribute name="fused_names" version="0" value="96"/>
			</rt_info>
			<input>
				<port id="0" precision="FP32">
					<dim>5</dim>
					<dim>1</dim>
				</port>
			</input>
			<output>
				<port id="1" precision="FP32" names="96">
					<dim>5</dim>
					<dim>1</dim>
				</port>
			</output>
		</layer>
		<layer id="34" name="97" type="Negative" version="opset1">
			<rt_info>
				<attribute name="fused_names" version="0" value="97"/>
			</rt_info>
			<input>
				<port id="0" precision="FP32">
					<dim>5</dim>
					<dim>1</dim>
				</port>
			</input>
			<output>
				<port id="1" precision="FP32" names="97">
					<dim>5</dim>
					<dim>1</dim>
				</port>
			</output>
		</layer>
		<layer id="35" name="98" type="Concat" version="opset1">
			<data axis="1"/>
			<rt_info>
				<attribute name="fused_names" version="0" value="98"/>
			</rt_info>
			<input>
				<port id="0" precision="FP32">
					<dim>5</dim>
					<dim>1</dim>
				</port>
				<port id="1" precision="FP32">
					<dim>5</dim>
					<dim>1</dim>
				</port>
				<port id="2" precision="FP32">
					<dim>5</dim>
					<dim>1</dim>
				</port>
				<port id="3" precision="FP32">
					<dim>5</dim>
					<dim>1</dim>
				</port>
				<port id="4" precision="FP32">
					<dim>5</dim>
					<dim>1</dim>
				</port>
				<port id="5" precision="FP32">
					<dim>5</dim>
					<dim>1</dim>
				</port>
				<port id="6" precision="FP32">
					<dim>5</dim>
					<dim>1</dim>
				</port>
				<port id="7" precision="FP32">
					<dim>5</dim>
					<dim>1</dim>
				</port>
				<port id="8" precision="FP32">
					<dim>5</dim>
					<dim>1</dim>
				</port>
			</input>
			<output>
				<port id="9" precision="FP32" names="98">
					<dim>5</dim>
					<dim>9</dim>
				</port>
			</output>
		</layer>
		<layer id="36" name="721" type="Const" version="opset1">
			<data element_type="i64" shape="3" offset="100668" size="24"/>
			<rt_info>
				<attribute name="fused_names" version="0" value="721"/>
			</rt_info>
			<output>
				<port id="0" precision="I64" names="721">
					<dim>3</dim>
				</port>
			</output>
		</layer>
		<layer id="37" name="105" type="Reshape" version="opset1">
			<data special_zero="true"/>
			<rt_info>
				<attribute name="fused_names" version="0" value="105"/>
			</rt_info>
			<input>
				<port id="0" precision="FP32">
					<dim>5</dim>
					<dim>9</dim>
				</port>
				<port id="1" precision="I64">
					<dim>3</dim>
				</port>
			</input>
			<output>
				<port id="2" precision="FP32" names="105">
					<dim>5</dim>
					<dim>3</dim>
					<dim>3</dim>
				</port>
			</output>
		</layer>
		<layer id="38" name="106" type="Multiply" version="opset1">
			<data auto_broadcast="numpy"/>
			<rt_info>
				<attribute name="fused_names" version="0" value="106"/>
			</rt_info>
			<input>
				<port id="0" precision="FP32">
					<dim>5</dim>
					<dim>1</dim>
					<dim>1</dim>
				</port>
				<port id="1" precision="FP32">
					<dim>5</dim>
					<dim>3</dim>
					<dim>3</dim>
				</port>
			</input>
			<output>
				<port id="2" precision="FP32" names="106">
					<dim>5</dim>
					<dim>3</dim>
					<dim>3</dim>
				</port>
			</output>
		</layer>
		<layer id="39" name="108" type="Add" version="opset1">
			<data auto_broadcast="numpy"/>
			<rt_info>
				<attribute name="fused_names" version="0" value="108"/>
			</rt_info>
			<input>
				<port id="0" precision="FP32">
					<dim>1</dim>
					<dim>3</dim>
					<dim>3</dim>
				</port>
				<port id="1" precision="FP32">
					<dim>5</dim>
					<dim>3</dim>
					<dim>3</dim>
				</port>
			</input>
			<output>
				<port id="2" precision="FP32" names="108">
					<dim>5</dim>
					<dim>3</dim>
					<dim>3</dim>
				</port>
			</output>
		</layer>
		<layer id="40" name="Constant_9102" type="Const" version="opset1">
			<data element_type="f32" shape="1, 1, 1" offset="100692" size="4"/>
			<output>
				<port id="0" precision="FP32">
					<dim>1</dim>
					<dim>1</dim>
					<dim>1</dim>
				</port>
			</output>
		</layer>
		<layer id="41" name="87" type="Cos" version="opset1">
			<rt_info>
				<attribute name="fused_names" version="0" value="87"/>
			</rt_info>
			<input>
				<port id="0" precision="FP32">
					<dim>5</dim>
					<dim>1</dim>
				</port>
			</input>
			<output>
				<port id="1" precision="FP32" names="87">
					<dim>5</dim>
					<dim>1</dim>
				</port>
			</output>
		</layer>
		<layer id="42" name="Constant_248" type="Const" version="opset1">
			<data element_type="i64" shape="1" offset="100616" size="8"/>
			<rt_info>
				<attribute name="fused_names" version="0" value="Constant_248"/>
			</rt_info>
			<output>
				<port id="0" precision="I64">
					<dim>1</dim>
				</port>
			</output>
		</layer>
		<layer id="43" name="88" type="Unsqueeze" version="opset1">
			<rt_info>
				<attribute name="fused_names" version="0" value="88"/>
			</rt_info>
			<input>
				<port id="0" precision="FP32">
					<dim>5</dim>
					<dim>1</dim>
				</port>
				<port id="1" precision="I64">
					<dim>1</dim>
				</port>
			</input>
			<output>
				<port id="2" precision="FP32" names="88">
					<dim>5</dim>
					<dim>1</dim>
					<dim>1</dim>
				</port>
			</output>
		</layer>
		<layer id="44" name="110" type="Subtract" version="opset1">
			<data auto_broadcast="numpy"/>
			<rt_info>
				<attribute name="fused_names" version="0" value="110"/>
			</rt_info>
			<input>
				<port id="0" precision="FP32">
					<dim>1</dim>
					<dim>1</dim>
					<dim>1</dim>
				</port>
				<port id="1" precision="FP32">
					<dim>5</dim>
					<dim>1</dim>
					<dim>1</dim>
				</port>
			</input>
			<output>
				<port id="2" precision="FP32" names="110">
					<dim>5</dim>
					<dim>1</dim>
					<dim>1</dim>
				</port>
			</output>
		</layer>
		<layer id="45" name="111" type="MatMul" version="opset1">
			<data transpose_a="false" transpose_b="false"/>
			<rt_info>
				<attribute name="fused_names" version="0" value="111"/>
			</rt_info>
			<input>
				<port id="0" precision="FP32">
					<dim>5</dim>
					<dim>3</dim>
					<dim>3</dim>
				</port>
				<port id="1" precision="FP32">
					<dim>5</dim>
					<dim>3</dim>
					<dim>3</dim>
				</port>
			</input>
			<output>
				<port id="2" precision="FP32" names="111">
					<dim>5</dim>
					<dim>3</dim>
					<dim>3</dim>
				</port>
			</output>
		</layer>
		<layer id="46" name="112" type="Multiply" version="opset1">
			<data auto_broadcast="numpy"/>
			<rt_info>
				<attribute name="fused_names" version="0" value="112"/>
			</rt_info>
			<input>
				<port id="0" precision="FP32">
					<dim>5</dim>
					<dim>1</dim>
					<dim>1</dim>
				</port>
				<port id="1" precision="FP32">
					<dim>5</dim>
					<dim>3</dim>
					<dim>3</dim>
				</port>
			</input>
			<output>
				<port id="2" precision="FP32" names="112">
					<dim>5</dim>
					<dim>3</dim>
					<dim>3</dim>
				</port>
			</output>
		</layer>
		<layer id="47" name="113" type="Add" version="opset1">
			<data auto_broadcast="numpy"/>
			<rt_info>
				<attribute name="fused_names" version="0" value="113"/>
			</rt_info>
			<input>
				<port id="0" precision="FP32">
					<dim>5</dim>
					<dim>3</dim>
					<dim>3</dim>
				</port>
				<port id="1" precision="FP32">
					<dim>5</dim>
					<dim>3</dim>
					<dim>3</dim>
				</port>
			</input>
			<output>
				<port id="2" precision="FP32" names="113">
					<dim>5</dim>
					<dim>3</dim>
					<dim>3</dim>
				</port>
			</output>
		</layer>
		<layer id="48" name="726" type="Const" version="opset1">
			<data element_type="i64" shape="4" offset="100696" size="32"/>
			<rt_info>
				<attribute name="fused_names" version="0" value="726"/>
			</rt_info>
			<output>
				<port id="0" precision="I64" names="726">
					<dim>4</dim>
				</port>
			</output>
		</layer>
		<layer id="49" name="122" type="Reshape" version="opset1">
			<data special_zero="true"/>
			<rt_info>
				<attribute name="fused_names" version="0" value="122"/>
			</rt_info>
			<input>
				<port id="0" precision="FP32">
					<dim>5</dim>
					<dim>3</dim>
					<dim>3</dim>
				</port>
				<port id="1" precision="I64">
					<dim>4</dim>
				</port>
			</input>
			<output>
				<port id="2" precision="FP32" names="122">
					<dim>1</dim>
					<dim>5</dim>
					<dim>3</dim>
					<dim>3</dim>
				</port>
			</output>
		</layer>
		<layer id="50" name="262" type="Const" version="opset1">
			<data element_type="i64" shape="3" offset="100728" size="24"/>
			<rt_info>
				<attribute name="fused_names" version="0" value="262"/>
			</rt_info>
			<output>
				<port id="0" precision="I64" names="262">
					<dim>3</dim>
				</port>
			</output>
		</layer>
		<layer id="51" name="263" type="Reshape" version="opset1">
			<data special_zero="true"/>
			<rt_info>
				<attribute name="fused_names" version="0" value="263"/>
			</rt_info>
			<input>
				<port id="0" precision="FP32">
					<dim>1</dim>
					<dim>5</dim>
					<dim>3</dim>
					<dim>3</dim>
				</port>
				<port id="1" precision="I64">
					<dim>3</dim>
				</port>
			</input>
			<output>
				<port id="2" precision="FP32" names="263">
					<dim>5</dim>
					<dim>3</dim>
					<dim>3</dim>
				</port>
			</output>
		</layer>
		<layer id="52" name="Split_852.0" type="Const" version="opset1">
			<data element_type="i64" shape="3" offset="100572" size="24"/>
			<output>
				<port id="0" precision="I64">
					<dim>3</dim>
				</port>
			</output>
		</layer>
		<layer id="53" name="Split_852.1" type="Const" version="opset1">
			<data element_type="i64" shape="3" offset="100752" size="24"/>
			<output>
				<port id="0" precision="I64">
					<dim>3</dim>
				</port>
			</output>
		</layer>
		<layer id="54" name="288" type="Const" version="opset1">
			<data element_type="f32" shape="" offset="100776" size="4"/>
			<rt_info>
				<attribute name="fused_names" version="0" value="288"/>
			</rt_info>
			<output>
				<port id="0" precision="FP32" names="288"/>
			</output>
		</layer>
		<layer id="55" name="289" type="Pad" version="opset1">
			<data pad_mode="constant"/>
			<rt_info>
				<attribute name="fused_names" version="0" value="289, Constant_851, Split_852"/>
			</rt_info>
			<input>
				<port id="0" precision="FP32">
					<dim>5</dim>
					<dim>3</dim>
					<dim>3</dim>
				</port>
				<port id="1" precision="I64">
					<dim>3</dim>
				</port>
				<port id="2" precision="I64">
					<dim>3</dim>
				</port>
				<port id="3" precision="FP32"/>
			</input>
			<output>
				<port id="4" precision="FP32" names="289">
					<dim>5</dim>
					<dim>4</dim>
					<dim>3</dim>
				</port>
			</output>
		</layer>
		<layer id="56" name="73" type="Const" version="opset1">
			<data element_type="f32" shape="1, 5023, 3" offset="100780" size="60276"/>
			<output>
				<port id="0" precision="FP32" names="73">
					<dim>1</dim>
					<dim>5023</dim>
					<dim>3</dim>
				</port>
			</output>
		</layer>
		<layer id="57" name="33" type="Concat" version="opset1">
			<data axis="1"/>
			<rt_info>
				<attribute name="fused_names" version="0" value="33"/>
			</rt_info>
			<input>
				<port id="0" precision="FP32">
					<dim>1</dim>
					<dim>100</dim>
				</port>
				<port id="1" precision="FP32">
					<dim>1</dim>
					<dim>50</dim>
				</port>
			</input>
			<output>
				<port id="2" precision="FP32" names="33">
					<dim>1</dim>
					<dim>150</dim>
				</port>
			</output>
		</layer>
		<layer id="58" name="shapedirs" type="Const" version="opset1">
			<data element_type="f32" shape="5023, 3, 150" offset="161056" size="9041400"/>
			<rt_info>
				<attribute name="fused_names" version="0" value="shapedirs"/>
			</rt_info>
			<output>
				<port id="0" precision="FP32" names="shapedirs">
					<dim>5023</dim>
					<dim>3</dim>
					<dim>150</dim>
				</port>
			</output>
		</layer>
		<layer id="59" name="75" type="Einsum" version="opset7">
			<data equation="bl,mkl-&gt;bmk"/>
			<rt_info>
				<attribute name="fused_names" version="0" value="75"/>
			</rt_info>
			<input>
				<port id="0" precision="FP32">
					<dim>1</dim>
					<dim>150</dim>
				</port>
				<port id="1" precision="FP32">
					<dim>5023</dim>
					<dim>3</dim>
					<dim>150</dim>
				</port>
			</input>
			<output>
				<port id="2" precision="FP32" names="75">
					<dim>1</dim>
					<dim>5023</dim>
					<dim>3</dim>
				</port>
			</output>
		</layer>
		<layer id="60" name="76" type="Add" version="opset1">
			<data auto_broadcast="numpy"/>
			<rt_info>
				<attribute name="fused_names" version="0" value="716, 72, 73, 76"/>
			</rt_info>
			<input>
				<port id="0" precision="FP32">
					<dim>1</dim>
					<dim>5023</dim>
					<dim>3</dim>
				</port>
				<port id="1" precision="FP32">
					<dim>1</dim>
					<dim>5023</dim>
					<dim>3</dim>
				</port>
			</input>
			<output>
				<port id="2" precision="FP32" names="76">
					<dim>1</dim>
					<dim>5023</dim>
					<dim>3</dim>
				</port>
			</output>
		</layer>
		<layer id="61" name="J_regressor" type="Const" version="opset1">
			<data element_type="f32" shape="5, 5023" offset="9202456" size="100460"/>
			<rt_info>
				<attribute name="fused_names" version="0" value="J_regressor"/>
			</rt_info>
			<output>
				<port id="0" precision="FP32" names="J_regressor">
					<dim>5</dim>
					<dim>5023</dim>
				</port>
			</output>
		</layer>
		<layer id="62" name="77" type="Einsum" version="opset7">
			<data equation="bik,ji-&gt;bjk"/>
			<rt_info>
				<attribute name="fused_names" version="0" value="77"/>
			</rt_info>
			<input>
				<port id="0" precision="FP32">
					<dim>1</dim>
					<dim>5023</dim>
					<dim>3</dim>
				</port>
				<port id="1" precision="FP32">
					<dim>5</dim>
					<dim>5023</dim>
				</port>
			</input>
			<output>
				<port id="2" precision="FP32" names="77">
					<dim>1</dim>
					<dim>5</dim>
					<dim>3</dim>
				</port>
			</output>
		</layer>
		<layer id="63" name="Constant_302" type="Const" version="opset1">
			<data element_type="i64" shape="1" offset="9302916" size="8"/>
			<rt_info>
				<attribute name="fused_names" version="0" value="Constant_302"/>
			</rt_info>
			<output>
				<port id="0" precision="I64">
					<dim>1</dim>
				</port>
			</output>
		</layer>
		<layer id="64" name="144" type="Unsqueeze" version="opset1">
			<rt_info>
				<attribute name="fused_names" version="0" value="144"/>
			</rt_info>
			<input>
				<port id="0" precision="FP32">
					<dim>1</dim>
					<dim>5</dim>
					<dim>3</dim>
				</port>
				<port id="1" precision="I64">
					<dim>1</dim>
				</port>
			</input>
			<output>
				<port id="2" precision="FP32" names="144">
					<dim>1</dim>
					<dim>5</dim>
					<dim>3</dim>
					<dim>1</dim>
				</port>
			</output>
		</layer>
		<layer id="65" name="163" type="Const" version="opset1">
			<data element_type="i64" shape="" offset="9302924" size="8"/>
			<rt_info>
				<attribute name="fused_names" version="0" value="163"/>
			</rt_info>
			<output>
				<port id="0" precision="I64" names="163"/>
			</output>
		</layer>
		<layer id="66" name="159" type="ShapeOf" version="opset3">
			<data output_type="i64"/>
			<rt_info>
				<attribute name="fused_names" version="0" value="159, 166, 199, 315"/>
			</rt_info>
			<input>
				<port id="0" precision="FP32">
					<dim>1</dim>
					<dim>5</dim>
					<dim>3</dim>
					<dim>1</dim>
				</port>
			</input>
			<output>
				<port id="1" precision="I64" names="159,166,199,315">
					<dim>4</dim>
				</port>
			</output>
		</layer>
		<layer id="67" name="160" type="Const" version="opset1">
			<data element_type="i64" shape="" offset="9302924" size="8"/>
			<rt_info>
				<attribute name="fused_names" version="0" value="160"/>
			</rt_info>
			<output>
				<port id="0" precision="I64" names="160"/>
			</output>
		</layer>
		<layer id="68" name="Constant_321" type="Const" version="opset1">
			<data element_type="i64" shape="" offset="9302924" size="8"/>
			<rt_info>
				<attribute name="fused_names" version="0" value="Constant_321"/>
			</rt_info>
			<output>
				<port id="0" precision="I64"/>
			</output>
		</layer>
		<layer id="69" name="161" type="Gather" version="opset8">
			<data batch_dims="0"/>
			<rt_info>
				<attribute name="fused_names" version="0" value="160, 161, 162, Constant_321"/>
			</rt_info>
			<input>
				<port id="0" precision="I64">
					<dim>4</dim>
				</port>
				<port id="1" precision="I64"/>
				<port id="2" precision="I64"/>
			</input>
			<output>
				<port id="3" precision="I64" names="161,162"/>
			</output>
		</layer>
		<layer id="70" name="164" type="Const" version="opset1">
			<data element_type="i64" shape="" offset="100616" size="8"/>
			<rt_info>
				<attribute name="fused_names" version="0" value="164"/>
			</rt_info>
			<output>
				<port id="0" precision="I64" names="164"/>
			</output>
		</layer>
		<layer id="71" name="165" type="Range" version="opset4">
			<data output_type="i64"/>
			<rt_info>
				<attribute name="fused_names" version="0" value="165"/>
			</rt_info>
			<input>
				<port id="0" precision="I64"/>
				<port id="1" precision="I64"/>
				<port id="2" precision="I64"/>
			</input>
			<output>
				<port id="3" precision="I64" names="165">
					<dim>1</dim>
				</port>
			</output>
		</layer>
		<layer id="72" name="178" type="Const" version="opset1">
			<data element_type="i64" shape="2" offset="9302932" size="16"/>
			<rt_info>
				<attribute name="fused_names" version="0" value="178"/>
			</rt_info>
			<output>
				<port id="0" precision="I64" names="178">
					<dim>2</dim>
				</port>
			</output>
		</layer>
		<layer id="73" name="179" type="Reshape" version="opset1">
			<data special_zero="true"/>
			<rt_info>
				<attribute name="fused_names" version="0" value="179"/>
			</rt_info>
			<input>
				<port id="0" precision="I64">
					<dim>1</dim>
				</port>
				<port id="1" precision="I64">
					<dim>2</dim>
				</port>
			</input>
			<output>
				<port id="2" precision="I64" names="179">
					<dim>1</dim>
					<dim>1</dim>
				</port>
			</output>
		</layer>
		<layer id="74" name="170" type="Const" version="opset1">
			<data element_type="i64" shape="" offset="9302924" size="8"/>
			<rt_info>
				<attribute name="fused_names" version="0" value="170"/>
			</rt_info>
			<output>
				<port id="0" precision="I64" names="170"/>
			</output>
		</layer>
		<layer id="75" name="167" type="Const" version="opset1">
			<data element_type="i64" shape="" offset="100616" size="8"/>
			<rt_info>
				<attribute name="fused_names" version="0" value="167"/>
			</rt_info>
			<output>
				<port id="0" precision="I64" names="167"/>
			</output>
		</layer>
		<layer id="76" name="Constant_349" type="Const" version="opset1">
			<data element_type="i64" shape="" offset="9302924" size="8"/>
			<rt_info>
				<attribute name="fused_names" version="0" value="Constant_349"/>
			</rt_info>
			<output>
				<port id="0" precision="I64"/>
			</output>
		</layer>
		<layer id="77" name="168" type="Gather" version="opset8">
			<data batch_dims="0"/>
			<rt_info>
				<attribute name="fused_names" version="0" value="167, 168, 169, Constant_349"/>
			</rt_info>
			<input>
				<port id="0" precision="I64">
					<dim>4</dim>
				</port>
				<port id="1" precision="I64"/>
				<port id="2" precision="I64"/>
			</input>
			<output>
				<port id="3" precision="I64" names="168,169"/>
			</output>
		</layer>
		<layer id="78" name="171" type="Const" version="opset1">
			<data element_type="i64" shape="" offset="100616" size="8"/>
			<rt_info>
				<attribute name="fused_names" version="0" value="171"/>
			</rt_info>
			<output>
				<port id="0" precision="I64" names="171"/>
			</output>
		</layer>
		<layer id="79" name="172" type="Range" version="opset4">
			<data output_type="i64"/>
			<rt_info>
				<attribute name="fused_names" version="0" value="172"/>
			</rt_info>
			<input>
				<port id="0" precision="I64"/>
				<port id="1" precision="I64"/>
				<port id="2" precision="I64"/>
			</input>
			<output>
				<port id="3" precision="I64" names="172">
					<dim>5</dim>
				</port>
			</output>
		</layer>
		<layer id="80" name="174" type="Const" version="opset1">
			<data element_type="i64" shape="1" offset="100616" size="8"/>
			<rt_info>
				<attribute name="fused_names" version="0" value="177"/>
			</rt_info>
			<output>
				<port id="0" precision="I64" names="174">
					<dim>1</dim>
				</port>
			</output>
		</layer>
		<layer id="81" name="175" type="Const" version="opset1">
			<data element_type="i64" shape="1" offset="9302948" size="8"/>
			<rt_info>
				<attribute name="fused_names" version="0" value="177"/>
			</rt_info>
			<output>
				<port id="0" precision="I64" names="175">
					<dim>1</dim>
				</port>
			</output>
		</layer>
		<layer id="82" name="176" type="Const" version="opset1">
			<data element_type="i64" shape="1" offset="100616" size="8"/>
			<rt_info>
				<attribute name="fused_names" version="0" value="177"/>
			</rt_info>
			<output>
				<port id="0" precision="I64" names="176">
					<dim>1</dim>
				</port>
			</output>
		</layer>
		<layer id="83" name="177" type="StridedSlice" version="opset1">
			<data begin_mask="0" end_mask="0" new_axis_mask="" shrink_axis_mask="" ellipsis_mask=""/>
			<rt_info>
				<attribute name="fused_names" version="0" value="177"/>
			</rt_info>
			<input>
				<port id="0" precision="I64">
					<dim>5</dim>
				</port>
				<port id="1" precision="I64">
					<dim>1</dim>
				</port>
				<port id="2" precision="I64">
					<dim>1</dim>
				</port>
				<port id="3" precision="I64">
					<dim>1</dim>
				</port>
			</input>
			<output>
				<port id="4" precision="I64" names="177">
					<dim>4</dim>
				</port>
			</output>
		</layer>
		<layer id="84" name="180" type="Add" version="opset1">
			<data auto_broadcast="numpy"/>
			<rt_info>
				<attribute name="fused_names" version="0" value="180"/>
			</rt_info>
			<input>
				<port id="0" precision="I64">
					<dim>1</dim>
					<dim>1</dim>
				</port>
				<port id="1" precision="I64">
					<dim>4</dim>
				</port>
			</input>
			<output>
				<port id="2" precision="I64" names="180">
					<dim>1</dim>
					<dim>4</dim>
				</port>
			</output>
		</layer>
		<layer id="85" name="181" type="ShapeOf" version="opset3">
			<data output_type="i64"/>
			<rt_info>
				<attribute name="fused_names" version="0" value="181"/>
			</rt_info>
			<input>
				<port id="0" precision="I64">
					<dim>1</dim>
					<dim>4</dim>
				</port>
			</input>
			<output>
				<port id="1" precision="I64" names="181">
					<dim>2</dim>
				</port>
			</output>
		</layer>
		<layer id="86" name="185" type="Const" version="opset1">
			<data element_type="i64" shape="2" offset="9302956" size="16"/>
			<output>
				<port id="0" precision="I64" names="185">
					<dim>2</dim>
				</port>
			</output>
		</layer>
		<layer id="87" name="186" type="Equal" version="opset1">
			<data auto_broadcast="numpy"/>
			<rt_info>
				<attribute name="fused_names" version="0" value="183, 184, 185, 186, Constant_391"/>
			</rt_info>
			<input>
				<port id="0" precision="I64">
					<dim>2</dim>
				</port>
				<port id="1" precision="I64">
					<dim>2</dim>
				</port>
			</input>
			<output>
				<port id="2" precision="BOOL" names="186">
					<dim>2</dim>
				</port>
			</output>
		</layer>
		<layer id="88" name="183" type="Const" version="opset1">
			<data element_type="i64" shape="2" offset="100528" size="16"/>
			<output>
				<port id="0" precision="I64" names="183">
					<dim>2</dim>
				</port>
			</output>
		</layer>
		<layer id="89" name="187" type="Select" version="opset1">
			<data auto_broadcast="numpy"/>
			<rt_info>
				<attribute name="fused_names" version="0" value="183, 187, Constant_391"/>
			</rt_info>
			<input>
				<port id="0" precision="BOOL">
					<dim>2</dim>
				</port>
				<port id="1" precision="I64">
					<dim>2</dim>
				</port>
				<port id="2" precision="I64">
					<dim>2</dim>
				</port>
			</input>
			<output>
				<port id="3" precision="I64" names="187">
					<dim>2</dim>
				</port>
			</output>
		</layer>
		<layer id="90" name="188" type="Broadcast" version="opset3">
			<data mode="bidirectional"/>
			<rt_info>
				<attribute name="fused_names" version="0" value="188"/>
			</rt_info>
			<input>
				<port id="0" precision="I64">
					<dim>1</dim>
					<dim>1</dim>
				</port>
				<port id="1" precision="I64">
					<dim>2</dim>
				</port>
			</input>
			<output>
				<port id="2" precision="I64" names="188">
					<dim>1</dim>
					<dim>4</dim>
				</port>
			</output>
		</layer>
		<layer id="91" name="Constant_441" type="Const" version="opset1">
			<data element_type="i64" shape="1" offset="9302916" size="8"/>
			<rt_info>
				<attribute name="fused_names" version="0" value="Constant_441"/>
			</rt_info>
			<output>
				<port id="0" precision="I64">
					<dim>1</dim>
				</port>
			</output>
		</layer>
		<layer id="92" name="189" type="Unsqueeze" version="opset1">
			<rt_info>
				<attribute name="fused_names" version="0" value="189"/>
			</rt_info>
			<input>
				<port id="0" precision="I64">
					<dim>1</dim>
					<dim>4</dim>
				</port>
				<port id="1" precision="I64">
					<dim>1</dim>
				</port>
			</input>
			<output>
				<port id="2" precision="I64" names="189">
					<dim>1</dim>
					<dim>4</dim>
					<dim>1</dim>
				</port>
			</output>
		</layer>
		<layer id="93" name="193" type="Const" version="opset1">
			<data element_type="i64" shape="2" offset="9302956" size="16"/>
			<output>
				<port id="0" precision="I64" names="193">
					<dim>2</dim>
				</port>
			</output>
		</layer>
		<layer id="94" name="194" type="Equal" version="opset1">
			<data auto_broadcast="numpy"/>
			<rt_info>
				<attribute name="fused_names" version="0" value="191, 192, 193, 194, Constant_445"/>
			</rt_info>
			<input>
				<port id="0" precision="I64">
					<dim>2</dim>
				</port>
				<port id="1" precision="I64">
					<dim>2</dim>
				</port>
			</input>
			<output>
				<port id="2" precision="BOOL" names="194">
					<dim>2</dim>
				</port>
			</output>
		</layer>
		<layer id="95" name="191" type="Const" version="opset1">
			<data element_type="i64" shape="2" offset="100528" size="16"/>
			<output>
				<port id="0" precision="I64" names="191">
					<dim>2</dim>
				</port>
			</output>
		</layer>
		<layer id="96" name="195" type="Select" version="opset1">
			<data auto_broadcast="numpy"/>
			<rt_info>
				<attribute name="fused_names" version="0" value="191, 195, Constant_445"/>
			</rt_info>
			<input>
				<port id="0" precision="BOOL">
					<dim>2</dim>
				</port>
				<port id="1" precision="I64">
					<dim>2</dim>
				</port>
				<port id="2" precision="I64">
					<dim>2</dim>
				</port>
			</input>
			<output>
				<port id="3" precision="I64" names="195">
					<dim>2</dim>
				</port>
			</output>
		</layer>
		<layer id="97" name="196" type="Broadcast" version="opset3">
			<data mode="bidirectional"/>
			<rt_info>
				<attribute name="fused_names" version="0" value="196"/>
			</rt_info>
			<input>
				<port id="0" precision="I64">
					<dim>4</dim>
				</port>
				<port id="1" precision="I64">
					<dim>2</dim>
				</port>
			</input>
			<output>
				<port id="2" precision="I64" names="196">
					<dim>1</dim>
					<dim>4</dim>
				</port>
			</output>
		</layer>
		<layer id="98" name="Constant_495" type="Const" version="opset1">
			<data element_type="i64" shape="1" offset="9302916" size="8"/>
			<rt_info>
				<attribute name="fused_names" version="0" value="Constant_495"/>
			</rt_info>
			<output>
				<port id="0" precision="I64">
					<dim>1</dim>
				</port>
			</output>
		</layer>
		<layer id="99" name="197" type="Unsqueeze" version="opset1">
			<rt_info>
				<attribute name="fused_names" version="0" value="197"/>
			</rt_info>
			<input>
				<port id="0" precision="I64">
					<dim>1</dim>
					<dim>4</dim>
				</port>
				<port id="1" precision="I64">
					<dim>1</dim>
				</port>
			</input>
			<output>
				<port id="2" precision="I64" names="197">
					<dim>1</dim>
					<dim>4</dim>
					<dim>1</dim>
				</port>
			</output>
		</layer>
		<layer id="100" name="198" type="Concat" version="opset1">
			<data axis="-1"/>
			<rt_info>
				<attribute name="fused_names" version="0" value="198"/>
			</rt_info>
			<input>
				<port id="0" precision="I64">
					<dim>1</dim>
					<dim>4</dim>
					<dim>1</dim>
				</port>
				<port id="1" precision="I64">
					<dim>1</dim>
					<dim>4</dim>
					<dim>1</dim>
				</port>
			</input>
			<output>
				<port id="2" precision="I64" names="198">
					<dim>1</dim>
					<dim>4</dim>
					<dim>2</dim>
				</port>
			</output>
		</layer>
		<layer id="101" name="Constant_7987" type="Const" version="opset1">
			<data element_type="i64" shape="2" offset="9302972" size="16"/>
			<rt_info>
				<attribute name="fused_names" version="0" value="149"/>
			</rt_info>
			<output>
				<port id="0" precision="I64">
					<dim>2</dim>
				</port>
			</output>
		</layer>
		<layer id="102" name="Constant_7990" type="Const" version="opset1">
			<data element_type="i64" shape="2" offset="100556" size="16"/>
			<rt_info>
				<attribute name="fused_names" version="0" value="149"/>
			</rt_info>
			<output>
				<port id="0" precision="I64">
					<dim>2</dim>
				</port>
			</output>
		</layer>
		<layer id="103" name="Constant_7993" type="Const" version="opset1">
			<data element_type="i64" shape="2" offset="100528" size="16"/>
			<rt_info>
				<attribute name="fused_names" version="0" value="149"/>
			</rt_info>
			<output>
				<port id="0" precision="I64">
					<dim>2</dim>
				</port>
			</output>
		</layer>
		<layer id="104" name="149" type="StridedSlice" version="opset1">
			<data begin_mask="1, 0" end_mask="1, 0" new_axis_mask="" shrink_axis_mask="" ellipsis_mask=""/>
			<rt_info>
				<attribute name="fused_names" version="0" value="149"/>
			</rt_info>
			<input>
				<port id="0" precision="FP32">
					<dim>1</dim>
					<dim>5</dim>
					<dim>3</dim>
					<dim>1</dim>
				</port>
				<port id="1" precision="I64">
					<dim>2</dim>
				</port>
				<port id="2" precision="I64">
					<dim>2</dim>
				</port>
				<port id="3" precision="I64">
					<dim>2</dim>
				</port>
			</input>
			<output>
				<port id="4" precision="FP32" names="149">
					<dim>1</dim>
					<dim>4</dim>
					<dim>3</dim>
					<dim>1</dim>
				</port>
			</output>
		</layer>
		<layer id="105" name="734" type="Const" version="opset1">
			<data element_type="i64" shape="4" offset="9302988" size="32"/>
			<rt_info>
				<attribute name="fused_names" version="0" value="734"/>
			</rt_info>
			<output>
				<port id="0" precision="I64" names="734">
					<dim>4</dim>
				</port>
			</output>
		</layer>
		<layer id="106" name="Constant_309" type="Const" version="opset1">
			<data element_type="i64" shape="" offset="100616" size="8"/>
			<rt_info>
				<attribute name="fused_names" version="0" value="Constant_309"/>
			</rt_info>
			<output>
				<port id="0" precision="I64"/>
			</output>
		</layer>
		<layer id="107" name="155" type="Gather" version="opset8">
			<data batch_dims="0"/>
			<rt_info>
				<attribute name="fused_names" version="0" value="155"/>
			</rt_info>
			<input>
				<port id="0" precision="FP32">
					<dim>1</dim>
					<dim>5</dim>
					<dim>3</dim>
					<dim>1</dim>
				</port>
				<port id="1" precision="I64">
					<dim>4</dim>
				</port>
				<port id="2" precision="I64"/>
			</input>
			<output>
				<port id="3" precision="FP32" names="155">
					<dim>1</dim>
					<dim>4</dim>
					<dim>3</dim>
					<dim>1</dim>
				</port>
			</output>
		</layer>
		<layer id="108" name="156" type="Subtract" version="opset1">
			<data auto_broadcast="numpy"/>
			<rt_info>
				<attribute name="fused_names" version="0" value="156"/>
			</rt_info>
			<input>
				<port id="0" precision="FP32">
					<dim>1</dim>
					<dim>4</dim>
					<dim>3</dim>
					<dim>1</dim>
				</port>
				<port id="1" precision="FP32">
					<dim>1</dim>
					<dim>4</dim>
					<dim>3</dim>
					<dim>1</dim>
				</port>
			</input>
			<output>
				<port id="2" precision="FP32" names="156">
					<dim>1</dim>
					<dim>4</dim>
					<dim>3</dim>
					<dim>1</dim>
				</port>
			</output>
		</layer>
		<layer id="109" name="157" type="ShapeOf" version="opset3">
			<data output_type="i64"/>
			<rt_info>
				<attribute name="fused_names" version="0" value="157"/>
			</rt_info>
			<input>
				<port id="0" precision="FP32">
					<dim>1</dim>
					<dim>4</dim>
					<dim>3</dim>
					<dim>1</dim>
				</port>
			</input>
			<output>
				<port id="1" precision="I64" names="157">
					<dim>4</dim>
				</port>
			</output>
		</layer>
		<layer id="110" name="158" type="Broadcast" version="opset3">
			<data mode="bidirectional"/>
			<rt_info>
				<attribute name="fused_names" version="0" value="158"/>
			</rt_info>
			<input>
				<port id="0" precision="FP32">
					<dim>1</dim>
					<dim>4</dim>
					<dim>3</dim>
					<dim>1</dim>
				</port>
				<port id="1" precision="I64">
					<dim>4</dim>
				</port>
			</input>
			<output>
				<port id="2" precision="FP32" names="158">
					<dim>1</dim>
					<dim>4</dim>
					<dim>3</dim>
					<dim>1</dim>
				</port>
			</output>
		</layer>
		<layer id="111" name="201" type="Const" version="opset1">
			<data element_type="i64" shape="1" offset="9303020" size="8"/>
			<rt_info>
				<attribute name="fused_names" version="0" value="200, 201, 202, 203, Broadcast_504, Constant_502, ShapeOf_503"/>
			</rt_info>
			<output>
				<port id="0" precision="I64" names="201">
					<dim>1</dim>
				</port>
			</output>
		</layer>
		<layer id="112" name="202" type="Const" version="opset1">
			<data element_type="i64" shape="1" offset="9302948" size="8"/>
			<rt_info>
				<attribute name="fused_names" version="0" value="200, 201, 202, 203, Broadcast_504, Constant_502, ShapeOf_503"/>
			</rt_info>
			<output>
				<port id="0" precision="I64" names="202">
					<dim>1</dim>
				</port>
			</output>
		</layer>
		<layer id="113" name="Broadcast_504" type="Const" version="opset1">
			<data element_type="i64" shape="1" offset="100616" size="8"/>
			<rt_info>
				<attribute name="fused_names" version="0" value="200, 201, 202, 203, Broadcast_504, Constant_502, ShapeOf_503"/>
			</rt_info>
			<output>
				<port id="0" precision="I64">
					<dim>1</dim>
				</port>
			</output>
		</layer>
		<layer id="114" name="203" type="StridedSlice" version="opset1">
			<data begin_mask="0" end_mask="0" new_axis_mask="" shrink_axis_mask="" ellipsis_mask=""/>
			<rt_info>
				<attribute name="fused_names" version="0" value="200, 201, 202, 203, Broadcast_504, Constant_502, ShapeOf_503"/>
			</rt_info>
			<input>
				<port id="0" precision="I64">
					<dim>4</dim>
				</port>
				<port id="1" precision="I64">
					<dim>1</dim>
				</port>
				<port id="2" precision="I64">
					<dim>1</dim>
				</port>
				<port id="3" precision="I64">
					<dim>1</dim>
				</port>
			</input>
			<output>
				<port id="4" precision="I64" names="203">
					<dim>2</dim>
				</port>
			</output>
		</layer>
		<layer id="115" name="204" type="Concat" version="opset1">
			<data axis="0"/>
			<rt_info>
				<attribute name="fused_names" version="0" value="204"/>
			</rt_info>
			<input>
				<port id="0" precision="I64">
					<dim>2</dim>
				</port>
				<port id="1" precision="I64">
					<dim>2</dim>
				</port>
			</input>
			<output>
				<port id="2" precision="I64" names="204">
					<dim>4</dim>
				</port>
			</output>
		</layer>
		<layer id="116" name="205" type="Reshape" version="opset1">
			<data special_zero="true"/>
			<rt_info>
				<attribute name="fused_names" version="0" value="205"/>
			</rt_info>
			<input>
				<port id="0" precision="FP32">
					<dim>1</dim>
					<dim>4</dim>
					<dim>3</dim>
					<dim>1</dim>
				</port>
				<port id="1" precision="I64">
					<dim>4</dim>
				</port>
			</input>
			<output>
				<port id="2" precision="FP32" names="205">
					<dim>1</dim>
					<dim>4</dim>
					<dim>3</dim>
					<dim>1</dim>
				</port>
			</output>
		</layer>
		<layer id="117" name="206" type="ScatterNDUpdate" version="opset4">
			<rt_info>
				<attribute name="fused_names" version="0" value="206"/>
			</rt_info>
			<input>
				<port id="0" precision="FP32">
					<dim>1</dim>
					<dim>5</dim>
					<dim>3</dim>
					<dim>1</dim>
				</port>
				<port id="1" precision="I64">
					<dim>1</dim>
					<dim>4</dim>
					<dim>2</dim>
				</port>
				<port id="2" precision="FP32">
					<dim>1</dim>
					<dim>4</dim>
					<dim>3</dim>
					<dim>1</dim>
				</port>
			</input>
			<output>
				<port id="3" precision="FP32" names="206">
					<dim>1</dim>
					<dim>5</dim>
					<dim>3</dim>
					<dim>1</dim>
				</port>
			</output>
		</layer>
		<layer id="118" name="218" type="Const" version="opset1">
			<data element_type="i64" shape="" offset="9302924" size="8"/>
			<rt_info>
				<attribute name="fused_names" version="0" value="218"/>
			</rt_info>
			<output>
				<port id="0" precision="I64" names="218"/>
			</output>
		</layer>
		<layer id="119" name="214" type="ShapeOf" version="opset3">
			<data output_type="i64"/>
			<rt_info>
				<attribute name="fused_names" version="0" value="214, 221, 254"/>
			</rt_info>
			<input>
				<port id="0" precision="FP32">
					<dim>1</dim>
					<dim>5</dim>
					<dim>3</dim>
					<dim>1</dim>
				</port>
			</input>
			<output>
				<port id="1" precision="I64" names="214,221,254">
					<dim>4</dim>
				</port>
			</output>
		</layer>
		<layer id="120" name="215" type="Const" version="opset1">
			<data element_type="i64" shape="" offset="9302924" size="8"/>
			<rt_info>
				<attribute name="fused_names" version="0" value="215"/>
			</rt_info>
			<output>
				<port id="0" precision="I64" names="215"/>
			</output>
		</layer>
		<layer id="121" name="Constant_570" type="Const" version="opset1">
			<data element_type="i64" shape="" offset="9302924" size="8"/>
			<rt_info>
				<attribute name="fused_names" version="0" value="Constant_570"/>
			</rt_info>
			<output>
				<port id="0" precision="I64"/>
			</output>
		</layer>
		<layer id="122" name="216" type="Gather" version="opset8">
			<data batch_dims="0"/>
			<rt_info>
				<attribute name="fused_names" version="0" value="215, 216, 217, Constant_570"/>
			</rt_info>
			<input>
				<port id="0" precision="I64">
					<dim>4</dim>
				</port>
				<port id="1" precision="I64"/>
				<port id="2" precision="I64"/>
			</input>
			<output>
				<port id="3" precision="I64" names="216,217"/>
			</output>
		</layer>
		<layer id="123" name="219" type="Const" version="opset1">
			<data element_type="i64" shape="" offset="100616" size="8"/>
			<rt_info>
				<attribute name="fused_names" version="0" value="219"/>
			</rt_info>
			<output>
				<port id="0" precision="I64" names="219"/>
			</output>
		</layer>
		<layer id="124" name="220" type="Range" version="opset4">
			<data output_type="i64"/>
			<rt_info>
				<attribute name="fused_names" version="0" value="220"/>
			</rt_info>
			<input>
				<port id="0" precision="I64"/>
				<port id="1" precision="I64"/>
				<port id="2" precision="I64"/>
			</input>
			<output>
				<port id="3" precision="I64" names="220">
					<dim>1</dim>
				</port>
			</output>
		</layer>
		<layer id="125" name="233" type="Const" version="opset1">
			<data element_type="i64" shape="2" offset="9302932" size="16"/>
			<rt_info>
				<attribute name="fused_names" version="0" value="233"/>
			</rt_info>
			<output>
				<port id="0" precision="I64" names="233">
					<dim>2</dim>
				</port>
			</output>
		</layer>
		<layer id="126" name="234" type="Reshape" version="opset1">
			<data special_zero="true"/>
			<rt_info>
				<attribute name="fused_names" version="0" value="234"/>
			</rt_info>
			<input>
				<port id="0" precision="I64">
					<dim>1</dim>
				</port>
				<port id="1" precision="I64">
					<dim>2</dim>
				</port>
			</input>
			<output>
				<port id="2" precision="I64" names="234">
					<dim>1</dim>
					<dim>1</dim>
				</port>
			</output>
		</layer>
		<layer id="127" name="225" type="Const" version="opset1">
			<data element_type="i64" shape="" offset="9302924" size="8"/>
			<rt_info>
				<attribute name="fused_names" version="0" value="225"/>
			</rt_info>
			<output>
				<port id="0" precision="I64" names="225"/>
			</output>
		</layer>
		<layer id="128" name="222" type="Const" version="opset1">
			<data element_type="i64" shape="" offset="100616" size="8"/>
			<rt_info>
				<attribute name="fused_names" version="0" value="222"/>
			</rt_info>
			<output>
				<port id="0" precision="I64" names="222"/>
			</output>
		</layer>
		<layer id="129" name="Constant_598" type="Const" version="opset1">
			<data element_type="i64" shape="" offset="9302924" size="8"/>
			<rt_info>
				<attribute name="fused_names" version="0" value="Constant_598"/>
			</rt_info>
			<output>
				<port id="0" precision="I64"/>
			</output>
		</layer>
		<layer id="130" name="223" type="Gather" version="opset8">
			<data batch_dims="0"/>
			<rt_info>
				<attribute name="fused_names" version="0" value="222, 223, 224, Constant_598"/>
			</rt_info>
			<input>
				<port id="0" precision="I64">
					<dim>4</dim>
				</port>
				<port id="1" precision="I64"/>
				<port id="2" precision="I64"/>
			</input>
			<output>
				<port id="3" precision="I64" names="223,224"/>
			</output>
		</layer>
		<layer id="131" name="226" type="Const" version="opset1">
			<data element_type="i64" shape="" offset="100616" size="8"/>
			<rt_info>
				<attribute name="fused_names" version="0" value="226"/>
			</rt_info>
			<output>
				<port id="0" precision="I64" names="226"/>
			</output>
		</layer>
		<layer id="132" name="227" type="Range" version="opset4">
			<data output_type="i64"/>
			<rt_info>
				<attribute name="fused_names" version="0" value="227"/>
			</rt_info>
			<input>
				<port id="0" precision="I64"/>
				<port id="1" precision="I64"/>
				<port id="2" precision="I64"/>
			</input>
			<output>
				<port id="3" precision="I64" names="227">
					<dim>5</dim>
				</port>
			</output>
		</layer>
		<layer id="133" name="229" type="Const" version="opset1">
			<data element_type="i64" shape="1" offset="100616" size="8"/>
			<rt_info>
				<attribute name="fused_names" version="0" value="232"/>
			</rt_info>
			<output>
				<port id="0" precision="I64" names="229">
					<dim>1</dim>
				</port>
			</output>
		</layer>
		<layer id="134" name="230" type="Const" version="opset1">
			<data element_type="i64" shape="1" offset="9302948" size="8"/>
			<rt_info>
				<attribute name="fused_names" version="0" value="232"/>
			</rt_info>
			<output>
				<port id="0" precision="I64" names="230">
					<dim>1</dim>
				</port>
			</output>
		</layer>
		<layer id="135" name="231" type="Const" version="opset1">
			<data element_type="i64" shape="1" offset="100616" size="8"/>
			<rt_info>
				<attribute name="fused_names" version="0" value="232"/>
			</rt_info>
			<output>
				<port id="0" precision="I64" names="231">
					<dim>1</dim>
				</port>
			</output>
		</layer>
		<layer id="136" name="232" type="StridedSlice" version="opset1">
			<data begin_mask="0" end_mask="0" new_axis_mask="" shrink_axis_mask="" ellipsis_mask=""/>
			<rt_info>
				<attribute name="fused_names" version="0" value="232"/>
			</rt_info>
			<input>
				<port id="0" precision="I64">
					<dim>5</dim>
				</port>
				<port id="1" precision="I64">
					<dim>1</dim>
				</port>
				<port id="2" precision="I64">
					<dim>1</dim>
				</port>
				<port id="3" precision="I64">
					<dim>1</dim>
				</port>
			</input>
			<output>
				<port id="4" precision="I64" names="232">
					<dim>4</dim>
				</port>
			</output>
		</layer>
		<layer id="137" name="235" type="Add" version="opset1">
			<data auto_broadcast="numpy"/>
			<rt_info>
				<attribute name="fused_names" version="0" value="235"/>
			</rt_info>
			<input>
				<port id="0" precision="I64">
					<dim>1</dim>
					<dim>1</dim>
				</port>
				<port id="1" precision="I64">
					<dim>4</dim>
				</port>
			</input>
			<output>
				<port id="2" precision="I64" names="235">
					<dim>1</dim>
					<dim>4</dim>
				</port>
			</output>
		</layer>
		<layer id="138" name="236" type="ShapeOf" version="opset3">
			<data output_type="i64"/>
			<rt_info>
				<attribute name="fused_names" version="0" value="236"/>
			</rt_info>
			<input>
				<port id="0" precision="I64">
					<dim>1</dim>
					<dim>4</dim>
				</port>
			</input>
			<output>
				<port id="1" precision="I64" names="236">
					<dim>2</dim>
				</port>
			</output>
		</layer>
		<layer id="139" name="240" type="Const" version="opset1">
			<data element_type="i64" shape="2" offset="9302956" size="16"/>
			<output>
				<port id="0" precision="I64" names="240">
					<dim>2</dim>
				</port>
			</output>
		</layer>
		<layer id="140" name="241" type="Equal" version="opset1">
			<data auto_broadcast="numpy"/>
			<rt_info>
				<attribute name="fused_names" version="0" value="238, 239, 240, 241, Constant_640"/>
			</rt_info>
			<input>
				<port id="0" precision="I64">
					<dim>2</dim>
				</port>
				<port id="1" precision="I64">
					<dim>2</dim>
				</port>
			</input>
			<output>
				<port id="2" precision="BOOL" names="241">
					<dim>2</dim>
				</port>
			</output>
		</layer>
		<layer id="141" name="238" type="Const" version="opset1">
			<data element_type="i64" shape="2" offset="100528" size="16"/>
			<output>
				<port id="0" precision="I64" names="238">
					<dim>2</dim>
				</port>
			</output>
		</layer>
		<layer id="142" name="242" type="Select" version="opset1">
			<data auto_broadcast="numpy"/>
			<rt_info>
				<attribute name="fused_names" version="0" value="238, 242, Constant_640"/>
			</rt_info>
			<input>
				<port id="0" precision="BOOL">
					<dim>2</dim>
				</port>
				<port id="1" precision="I64">
					<dim>2</dim>
				</port>
				<port id="2" precision="I64">
					<dim>2</dim>
				</port>
			</input>
			<output>
				<port id="3" precision="I64" names="242">
					<dim>2</dim>
				</port>
			</output>
		</layer>
		<layer id="143" name="243" type="Broadcast" version="opset3">
			<data mode="bidirectional"/>
			<rt_info>
				<attribute name="fused_names" version="0" value="243"/>
			</rt_info>
			<input>
				<port id="0" precision="I64">
					<dim>1</dim>
					<dim>1</dim>
				</port>
				<port id="1" precision="I64">
					<dim>2</dim>
				</port>
			</input>
			<output>
				<port id="2" precision="I64" names="243">
					<dim>1</dim>
					<dim>4</dim>
				</port>
			</output>
		</layer>
		<layer id="144" name="Constant_690" type="Const" version="opset1">
			<data element_type="i64" shape="1" offset="9302916" size="8"/>
			<rt_info>
				<attribute name="fused_names" version="0" value="Constant_690"/>
			</rt_info>
			<output>
				<port id="0" precision="I64">
					<dim>1</dim>
				</port>
			</output>
		</layer>
		<layer id="145" name="244" type="Unsqueeze" version="opset1">
			<rt_info>
				<attribute name="fused_names" version="0" value="244"/>
			</rt_info>
			<input>
				<port id="0" precision="I64">
					<dim>1</dim>
					<dim>4</dim>
				</port>
				<port id="1" precision="I64">
					<dim>1</dim>
				</port>
			</input>
			<output>
				<port id="2" precision="I64" names="244">
					<dim>1</dim>
					<dim>4</dim>
					<dim>1</dim>
				</port>
			</output>
		</layer>
		<layer id="146" name="248" type="Const" version="opset1">
			<data element_type="i64" shape="2" offset="9302956" size="16"/>
			<output>
				<port id="0" precision="I64" names="248">
					<dim>2</dim>
				</port>
			</output>
		</layer>
		<layer id="147" name="249" type="Equal" version="opset1">
			<data auto_broadcast="numpy"/>
			<rt_info>
				<attribute name="fused_names" version="0" value="246, 247, 248, 249, Constant_694"/>
			</rt_info>
			<input>
				<port id="0" precision="I64">
					<dim>2</dim>
				</port>
				<port id="1" precision="I64">
					<dim>2</dim>
				</port>
			</input>
			<output>
				<port id="2" precision="BOOL" names="249">
					<dim>2</dim>
				</port>
			</output>
		</layer>
		<layer id="148" name="246" type="Const" version="opset1">
			<data element_type="i64" shape="2" offset="100528" size="16"/>
			<output>
				<port id="0" precision="I64" names="246">
					<dim>2</dim>
				</port>
			</output>
		</layer>
		<layer id="149" name="250" type="Select" version="opset1">
			<data auto_broadcast="numpy"/>
			<rt_info>
				<attribute name="fused_names" version="0" value="246, 250, Constant_694"/>
			</rt_info>
			<input>
				<port id="0" precision="BOOL">
					<dim>2</dim>
				</port>
				<port id="1" precision="I64">
					<dim>2</dim>
				</port>
				<port id="2" precision="I64">
					<dim>2</dim>
				</port>
			</input>
			<output>
				<port id="3" precision="I64" names="250">
					<dim>2</dim>
				</port>
			</output>
		</layer>
		<layer id="150" name="251" type="Broadcast" version="opset3">
			<data mode="bidirectional"/>
			<rt_info>
				<attribute name="fused_names" version="0" value="251"/>
			</rt_info>
			<input>
				<port id="0" precision="I64">
					<dim>4</dim>
				</port>
				<port id="1" precision="I64">
					<dim>2</dim>
				</port>
			</input>
			<output>
				<port id="2" precision="I64" names="251">
					<dim>1</dim>
					<dim>4</dim>
				</port>
			</output>
		</layer>
		<layer id="151" name="Constant_744" type="Const" version="opset1">
			<data element_type="i64" shape="1" offset="9302916" size="8"/>
			<rt_info>
				<attribute name="fused_names" version="0" value="Constant_744"/>
			</rt_info>
			<output>
				<port id="0" precision="I64">
					<dim>1</dim>
				</port>
			</output>
		</layer>
		<layer id="152" name="252" type="Unsqueeze" version="opset1">
			<rt_info>
				<attribute name="fused_names" version="0" value="252"/>
			</rt_info>
			<input>
				<port id="0" precision="I64">
					<dim>1</dim>
					<dim>4</dim>
				</port>
				<port id="1" precision="I64">
					<dim>1</dim>
				</port>
			</input>
			<output>
				<port id="2" precision="I64" names="252">
					<dim>1</dim>
					<dim>4</dim>
					<dim>1</dim>
				</port>
			</output>
		</layer>
		<layer id="153" name="253" type="Concat" version="opset1">
			<data axis="-1"/>
			<rt_info>
				<attribute name="fused_names" version="0" value="253"/>
			</rt_info>
			<input>
				<port id="0" precision="I64">
					<dim>1</dim>
					<dim>4</dim>
					<dim>1</dim>
				</port>
				<port id="1" precision="I64">
					<dim>1</dim>
					<dim>4</dim>
					<dim>1</dim>
				</port>
			</input>
			<output>
				<port id="2" precision="I64" names="253">
					<dim>1</dim>
					<dim>4</dim>
					<dim>2</dim>
				</port>
			</output>
		</layer>
		<layer id="154" name="Constant_8001" type="Const" version="opset1">
			<data element_type="i64" shape="2" offset="9302972" size="16"/>
			<rt_info>
				<attribute name="fused_names" version="0" value="211"/>
			</rt_info>
			<output>
				<port id="0" precision="I64">
					<dim>2</dim>
				</port>
			</output>
		</layer>
		<layer id="155" name="Constant_8004" type="Const" version="opset1">
			<data element_type="i64" shape="2" offset="100556" size="16"/>
			<rt_info>
				<attribute name="fused_names" version="0" value="211"/>
			</rt_info>
			<output>
				<port id="0" precision="I64">
					<dim>2</dim>
				</port>
			</output>
		</layer>
		<layer id="156" name="Constant_8007" type="Const" version="opset1">
			<data element_type="i64" shape="2" offset="100528" size="16"/>
			<rt_info>
				<attribute name="fused_names" version="0" value="211"/>
			</rt_info>
			<output>
				<port id="0" precision="I64">
					<dim>2</dim>
				</port>
			</output>
		</layer>
		<layer id="157" name="211" type="StridedSlice" version="opset1">
			<data begin_mask="1, 0" end_mask="1, 0" new_axis_mask="" shrink_axis_mask="" ellipsis_mask=""/>
			<rt_info>
				<attribute name="fused_names" version="0" value="211"/>
			</rt_info>
			<input>
				<port id="0" precision="FP32">
					<dim>1</dim>
					<dim>5</dim>
					<dim>3</dim>
					<dim>1</dim>
				</port>
				<port id="1" precision="I64">
					<dim>2</dim>
				</port>
				<port id="2" precision="I64">
					<dim>2</dim>
				</port>
				<port id="3" precision="I64">
					<dim>2</dim>
				</port>
			</input>
			<output>
				<port id="4" precision="FP32" names="211">
					<dim>1</dim>
					<dim>4</dim>
					<dim>3</dim>
					<dim>1</dim>
				</port>
			</output>
		</layer>
		<layer id="158" name="212" type="ShapeOf" version="opset3">
			<data output_type="i64"/>
			<rt_info>
				<attribute name="fused_names" version="0" value="212"/>
			</rt_info>
			<input>
				<port id="0" precision="FP32">
					<dim>1</dim>
					<dim>4</dim>
					<dim>3</dim>
					<dim>1</dim>
				</port>
			</input>
			<output>
				<port id="1" precision="I64" names="212">
					<dim>4</dim>
				</port>
			</output>
		</layer>
		<layer id="159" name="213" type="Broadcast" version="opset3">
			<data mode="bidirectional"/>
			<rt_info>
				<attribute name="fused_names" version="0" value="213"/>
			</rt_info>
			<input>
				<port id="0" precision="FP32">
					<dim>1</dim>
					<dim>4</dim>
					<dim>3</dim>
					<dim>1</dim>
				</port>
				<port id="1" precision="I64">
					<dim>4</dim>
				</port>
			</input>
			<output>
				<port id="2" precision="FP32" names="213">
					<dim>1</dim>
					<dim>4</dim>
					<dim>3</dim>
					<dim>1</dim>
				</port>
			</output>
		</layer>
		<layer id="160" name="256" type="Const" version="opset1">
			<data element_type="i64" shape="1" offset="9303020" size="8"/>
			<rt_info>
				<attribute name="fused_names" version="0" value="255, 256, 257, 258, Broadcast_753, Constant_751, ShapeOf_752"/>
			</rt_info>
			<output>
				<port id="0" precision="I64" names="256">
					<dim>1</dim>
				</port>
			</output>
		</layer>
		<layer id="161" name="257" type="Const" version="opset1">
			<data element_type="i64" shape="1" offset="9302948" size="8"/>
			<rt_info>
				<attribute name="fused_names" version="0" value="255, 256, 257, 258, Broadcast_753, Constant_751, ShapeOf_752"/>
			</rt_info>
			<output>
				<port id="0" precision="I64" names="257">
					<dim>1</dim>
				</port>
			</output>
		</layer>
		<layer id="162" name="Broadcast_753" type="Const" version="opset1">
			<data element_type="i64" shape="1" offset="100616" size="8"/>
			<rt_info>
				<attribute name="fused_names" version="0" value="255, 256, 257, 258, Broadcast_753, Constant_751, ShapeOf_752"/>
			</rt_info>
			<output>
				<port id="0" precision="I64">
					<dim>1</dim>
				</port>
			</output>
		</layer>
		<layer id="163" name="258" type="StridedSlice" version="opset1">
			<data begin_mask="0" end_mask="0" new_axis_mask="" shrink_axis_mask="" ellipsis_mask=""/>
			<rt_info>
				<attribute name="fused_names" version="0" value="255, 256, 257, 258, Broadcast_753, Constant_751, ShapeOf_752"/>
			</rt_info>
			<input>
				<port id="0" precision="I64">
					<dim>4</dim>
				</port>
				<port id="1" precision="I64">
					<dim>1</dim>
				</port>
				<port id="2" precision="I64">
					<dim>1</dim>
				</port>
				<port id="3" precision="I64">
					<dim>1</dim>
				</port>
			</input>
			<output>
				<port id="4" precision="I64" names="258">
					<dim>2</dim>
				</port>
			</output>
		</layer>
		<layer id="164" name="259" type="Concat" version="opset1">
			<data axis="0"/>
			<rt_info>
				<attribute name="fused_names" version="0" value="259"/>
			</rt_info>
			<input>
				<port id="0" precision="I64">
					<dim>2</dim>
				</port>
				<port id="1" precision="I64">
					<dim>2</dim>
				</port>
			</input>
			<output>
				<port id="2" precision="I64" names="259">
					<dim>4</dim>
				</port>
			</output>
		</layer>
		<layer id="165" name="260" type="Reshape" version="opset1">
			<data special_zero="true"/>
			<rt_info>
				<attribute name="fused_names" version="0" value="260"/>
			</rt_info>
			<input>
				<port id="0" precision="FP32">
					<dim>1</dim>
					<dim>4</dim>
					<dim>3</dim>
					<dim>1</dim>
				</port>
				<port id="1" precision="I64">
					<dim>4</dim>
				</port>
			</input>
			<output>
				<port id="2" precision="FP32" names="260">
					<dim>1</dim>
					<dim>4</dim>
					<dim>3</dim>
					<dim>1</dim>
				</port>
			</output>
		</layer>
		<layer id="166" name="261" type="ScatterNDUpdate" version="opset4">
			<rt_info>
				<attribute name="fused_names" version="0" value="261"/>
			</rt_info>
			<input>
				<port id="0" precision="FP32">
					<dim>1</dim>
					<dim>5</dim>
					<dim>3</dim>
					<dim>1</dim>
				</port>
				<port id="1" precision="I64">
					<dim>1</dim>
					<dim>4</dim>
					<dim>2</dim>
				</port>
				<port id="2" precision="FP32">
					<dim>1</dim>
					<dim>4</dim>
					<dim>3</dim>
					<dim>1</dim>
				</port>
			</input>
			<output>
				<port id="3" precision="FP32" names="261">
					<dim>1</dim>
					<dim>5</dim>
					<dim>3</dim>
					<dim>1</dim>
				</port>
			</output>
		</layer>
		<layer id="167" name="264" type="Const" version="opset1">
			<data element_type="i64" shape="3" offset="9303028" size="24"/>
			<rt_info>
				<attribute name="fused_names" version="0" value="264"/>
			</rt_info>
			<output>
				<port id="0" precision="I64" names="264">
					<dim>3</dim>
				</port>
			</output>
		</layer>
		<layer id="168" name="265" type="Reshape" version="opset1">
			<data special_zero="true"/>
			<rt_info>
				<attribute name="fused_names" version="0" value="265"/>
			</rt_info>
			<input>
				<port id="0" precision="FP32">
					<dim>1</dim>
					<dim>5</dim>
					<dim>3</dim>
					<dim>1</dim>
				</port>
				<port id="1" precision="I64">
					<dim>3</dim>
				</port>
			</input>
			<output>
				<port id="2" precision="FP32" names="265">
					<dim>5</dim>
					<dim>3</dim>
					<dim>1</dim>
				</port>
			</output>
		</layer>
		<layer id="169" name="Split_953.0" type="Const" version="opset1">
			<data element_type="i64" shape="3" offset="100572" size="24"/>
			<output>
				<port id="0" precision="I64">
					<dim>3</dim>
				</port>
			</output>
		</layer>
		<layer id="170" name="Split_953.1" type="Const" version="opset1">
			<data element_type="i64" shape="3" offset="100752" size="24"/>
			<output>
				<port id="0" precision="I64">
					<dim>3</dim>
				</port>
			</output>
		</layer>
		<layer id="171" name="312" type="Const" version="opset1">
			<data element_type="f32" shape="" offset="100692" size="4"/>
			<rt_info>
				<attribute name="fused_names" version="0" value="312"/>
			</rt_info>
			<output>
				<port id="0" precision="FP32" names="312"/>
			</output>
		</layer>
		<layer id="172" name="313" type="Pad" version="opset1">
			<data pad_mode="constant"/>
			<rt_info>
				<attribute name="fused_names" version="0" value="313, Constant_952, Split_953"/>
			</rt_info>
			<input>
				<port id="0" precision="FP32">
					<dim>5</dim>
					<dim>3</dim>
					<dim>1</dim>
				</port>
				<port id="1" precision="I64">
					<dim>3</dim>
				</port>
				<port id="2" precision="I64">
					<dim>3</dim>
				</port>
				<port id="3" precision="FP32"/>
			</input>
			<output>
				<port id="4" precision="FP32" names="313">
					<dim>5</dim>
					<dim>4</dim>
					<dim>1</dim>
				</port>
			</output>
		</layer>
		<layer id="173" name="314" type="Concat" version="opset1">
			<data axis="2"/>
			<rt_info>
				<attribute name="fused_names" version="0" value="314"/>
			</rt_info>
			<input>
				<port id="0" precision="FP32">
					<dim>5</dim>
					<dim>4</dim>
					<dim>3</dim>
				</port>
				<port id="1" precision="FP32">
					<dim>5</dim>
					<dim>4</dim>
					<dim>1</dim>
				</port>
			</input>
			<output>
				<port id="2" precision="FP32" names="314">
					<dim>5</dim>
					<dim>4</dim>
					<dim>4</dim>
				</port>
			</output>
		</layer>
		<layer id="174" name="745" type="Const" version="opset1">
			<data element_type="i64" shape="1" offset="9302916" size="8"/>
			<rt_info>
				<attribute name="fused_names" version="0" value="745"/>
			</rt_info>
			<output>
				<port id="0" precision="I64" names="745">
					<dim>1</dim>
				</port>
			</output>
		</layer>
		<layer id="175" name="Constant_7946" type="Const" version="opset1">
			<data element_type="i64" shape="1" offset="100616" size="8"/>
			<rt_info>
				<attribute name="fused_names" version="0" value="316, 317, 322, Constant_1024, Constant_1026"/>
			</rt_info>
			<output>
				<port id="0" precision="I64">
					<dim>1</dim>
				</port>
			</output>
		</layer>
		<layer id="176" name="Constant_1024" type="Const" version="opset1">
			<data element_type="i64" shape="" offset="9302924" size="8"/>
			<rt_info>
				<attribute name="fused_names" version="0" value="Constant_1024"/>
			</rt_info>
			<output>
				<port id="0" precision="I64"/>
			</output>
		</layer>
		<layer id="177" name="317" type="Gather" version="opset8">
			<data batch_dims="0"/>
			<rt_info>
				<attribute name="fused_names" version="0" value="316, 317, 322, Constant_1024, Constant_1026"/>
			</rt_info>
			<input>
				<port id="0" precision="I64">
					<dim>4</dim>
				</port>
				<port id="1" precision="I64">
					<dim>1</dim>
				</port>
				<port id="2" precision="I64"/>
			</input>
			<output>
				<port id="3" precision="I64" names="322">
					<dim>1</dim>
				</port>
			</output>
		</layer>
		<layer id="178" name="746" type="Const" version="opset1">
			<data element_type="i64" shape="1" offset="9303052" size="8"/>
			<rt_info>
				<attribute name="fused_names" version="0" value="746"/>
			</rt_info>
			<output>
				<port id="0" precision="I64" names="746">
					<dim>1</dim>
				</port>
			</output>
		</layer>
		<layer id="179" name="747" type="Const" version="opset1">
			<data element_type="i64" shape="1" offset="9303052" size="8"/>
			<rt_info>
				<attribute name="fused_names" version="0" value="747"/>
			</rt_info>
			<output>
				<port id="0" precision="I64" names="747">
					<dim>1</dim>
				</port>
			</output>
		</layer>
		<layer id="180" name="325" type="Concat" version="opset1">
			<data axis="0"/>
			<rt_info>
				<attribute name="fused_names" version="0" value="325, 745, 746, 747"/>
			</rt_info>
			<input>
				<port id="0" precision="I64">
					<dim>1</dim>
				</port>
				<port id="1" precision="I64">
					<dim>1</dim>
				</port>
				<port id="2" precision="I64">
					<dim>1</dim>
				</port>
				<port id="3" precision="I64">
					<dim>1</dim>
				</port>
			</input>
			<output>
				<port id="4" precision="I64" names="325">
					<dim>4</dim>
				</port>
			</output>
		</layer>
		<layer id="181" name="326" type="Reshape" version="opset1">
			<data special_zero="true"/>
			<rt_info>
				<attribute name="fused_names" version="0" value="326"/>
			</rt_info>
			<input>
				<port id="0" precision="FP32">
					<dim>5</dim>
					<dim>4</dim>
					<dim>4</dim>
				</port>
				<port id="1" precision="I64">
					<dim>4</dim>
				</port>
			</input>
			<output>
				<port id="2" precision="FP32" names="326">
					<dim>1</dim>
					<dim>5</dim>
					<dim>4</dim>
					<dim>4</dim>
				</port>
			</output>
		</layer>
		<layer id="182" name="327" type="Const" version="opset1">
			<data element_type="i64" shape="" offset="9302924" size="8"/>
			<rt_info>
				<attribute name="fused_names" version="0" value="327"/>
			</rt_info>
			<output>
				<port id="0" precision="I64" names="327"/>
			</output>
		</layer>
		<layer id="183" name="Constant_1063" type="Const" version="opset1">
			<data element_type="i64" shape="" offset="100616" size="8"/>
			<rt_info>
				<attribute name="fused_names" version="0" value="Constant_1063"/>
			</rt_info>
			<output>
				<port id="0" precision="I64"/>
			</output>
		</layer>
		<layer id="184" name="328" type="Gather" version="opset8">
			<data batch_dims="0"/>
			<rt_info>
				<attribute name="fused_names" version="0" value="328"/>
			</rt_info>
			<input>
				<port id="0" precision="FP32">
					<dim>1</dim>
					<dim>5</dim>
					<dim>4</dim>
					<dim>4</dim>
				</port>
				<port id="1" precision="I64"/>
				<port id="2" precision="I64"/>
			</input>
			<output>
				<port id="3" precision="FP32" names="328">
					<dim>1</dim>
					<dim>4</dim>
					<dim>4</dim>
				</port>
			</output>
		</layer>
		<layer id="185" name="Constant_1081" type="Const" version="opset1">
			<data element_type="i64" shape="1" offset="100616" size="8"/>
			<rt_info>
				<attribute name="fused_names" version="0" value="Constant_1081"/>
			</rt_info>
			<output>
				<port id="0" precision="I64">
					<dim>1</dim>
				</port>
			</output>
		</layer>
		<layer id="186" name="341" type="Unsqueeze" version="opset1">
			<rt_info>
				<attribute name="fused_names" version="0" value="341"/>
			</rt_info>
			<input>
				<port id="0" precision="FP32">
					<dim>1</dim>
					<dim>4</dim>
					<dim>4</dim>
				</port>
				<port id="1" precision="I64">
					<dim>1</dim>
				</port>
			</input>
			<output>
				<port id="2" precision="FP32" names="341">
					<dim>1</dim>
					<dim>1</dim>
					<dim>4</dim>
					<dim>4</dim>
				</port>
			</output>
		</layer>
		<layer id="187" name="329" type="Const" version="opset1">
			<data element_type="i64" shape="" offset="100616" size="8"/>
			<rt_info>
				<attribute name="fused_names" version="0" value="329"/>
			</rt_info>
			<output>
				<port id="0" precision="I64" names="329"/>
			</output>
		</layer>
		<layer id="188" name="Constant_1066" type="Const" version="opset1">
			<data element_type="i64" shape="" offset="100616" size="8"/>
			<rt_info>
				<attribute name="fused_names" version="0" value="Constant_1066"/>
			</rt_info>
			<output>
				<port id="0" precision="I64"/>
			</output>
		</layer>
		<layer id="189" name="330" type="Gather" version="opset8">
			<data batch_dims="0"/>
			<rt_info>
				<attribute name="fused_names" version="0" value="330"/>
			</rt_info>
			<input>
				<port id="0" precision="FP32">
					<dim>1</dim>
					<dim>5</dim>
					<dim>4</dim>
					<dim>4</dim>
				</port>
				<port id="1" precision="I64"/>
				<port id="2" precision="I64"/>
			</input>
			<output>
				<port id="3" precision="FP32" names="330">
					<dim>1</dim>
					<dim>4</dim>
					<dim>4</dim>
				</port>
			</output>
		</layer>
		<layer id="190" name="331" type="MatMul" version="opset1">
			<data transpose_a="false" transpose_b="false"/>
			<rt_info>
				<attribute name="fused_names" version="0" value="331"/>
			</rt_info>
			<input>
				<port id="0" precision="FP32">
					<dim>1</dim>
					<dim>4</dim>
					<dim>4</dim>
				</port>
				<port id="1" precision="FP32">
					<dim>1</dim>
					<dim>4</dim>
					<dim>4</dim>
				</port>
			</input>
			<output>
				<port id="2" precision="FP32" names="331">
					<dim>1</dim>
					<dim>4</dim>
					<dim>4</dim>
				</port>
			</output>
		</layer>
		<layer id="191" name="Constant_1083" type="Const" version="opset1">
			<data element_type="i64" shape="1" offset="100616" size="8"/>
			<rt_info>
				<attribute name="fused_names" version="0" value="Constant_1083"/>
			</rt_info>
			<output>
				<port id="0" precision="I64">
					<dim>1</dim>
				</port>
			</output>
		</layer>
		<layer id="192" name="342" type="Unsqueeze" version="opset1">
			<rt_info>
				<attribute name="fused_names" version="0" value="342"/>
			</rt_info>
			<input>
				<port id="0" precision="FP32">
					<dim>1</dim>
					<dim>4</dim>
					<dim>4</dim>
				</port>
				<port id="1" precision="I64">
					<dim>1</dim>
				</port>
			</input>
			<output>
				<port id="2" precision="FP32" names="342">
					<dim>1</dim>
					<dim>1</dim>
					<dim>4</dim>
					<dim>4</dim>
				</port>
			</output>
		</layer>
		<layer id="193" name="332" type="Const" version="opset1">
			<data element_type="i64" shape="" offset="9303020" size="8"/>
			<rt_info>
				<attribute name="fused_names" version="0" value="332"/>
			</rt_info>
			<output>
				<port id="0" precision="I64" names="332"/>
			</output>
		</layer>
		<layer id="194" name="Constant_1070" type="Const" version="opset1">
			<data element_type="i64" shape="" offset="100616" size="8"/>
			<rt_info>
				<attribute name="fused_names" version="0" value="Constant_1070"/>
			</rt_info>
			<output>
				<port id="0" precision="I64"/>
			</output>
		</layer>
		<layer id="195" name="333" type="Gather" version="opset8">
			<data batch_dims="0"/>
			<rt_info>
				<attribute name="fused_names" version="0" value="333"/>
			</rt_info>
			<input>
				<port id="0" precision="FP32">
					<dim>1</dim>
					<dim>5</dim>
					<dim>4</dim>
					<dim>4</dim>
				</port>
				<port id="1" precision="I64"/>
				<port id="2" precision="I64"/>
			</input>
			<output>
				<port id="3" precision="FP32" names="333">
					<dim>1</dim>
					<dim>4</dim>
					<dim>4</dim>
				</port>
			</output>
		</layer>
		<layer id="196" name="334" type="MatMul" version="opset1">
			<data transpose_a="false" transpose_b="false"/>
			<rt_info>
				<attribute name="fused_names" version="0" value="334"/>
			</rt_info>
			<input>
				<port id="0" precision="FP32">
					<dim>1</dim>
					<dim>4</dim>
					<dim>4</dim>
				</port>
				<port id="1" precision="FP32">
					<dim>1</dim>
					<dim>4</dim>
					<dim>4</dim>
				</port>
			</input>
			<output>
				<port id="2" precision="FP32" names="334">
					<dim>1</dim>
					<dim>4</dim>
					<dim>4</dim>
				</port>
			</output>
		</layer>
		<layer id="197" name="Constant_1085" type="Const" version="opset1">
			<data element_type="i64" shape="1" offset="100616" size="8"/>
			<rt_info>
				<attribute name="fused_names" version="0" value="Constant_1085"/>
			</rt_info>
			<output>
				<port id="0" precision="I64">
					<dim>1</dim>
				</port>
			</output>
		</layer>
		<layer id="198" name="343" type="Unsqueeze" version="opset1">
			<rt_info>
				<attribute name="fused_names" version="0" value="343"/>
			</rt_info>
			<input>
				<port id="0" precision="FP32">
					<dim>1</dim>
					<dim>4</dim>
					<dim>4</dim>
				</port>
				<port id="1" precision="I64">
					<dim>1</dim>
				</port>
			</input>
			<output>
				<port id="2" precision="FP32" names="343">
					<dim>1</dim>
					<dim>1</dim>
					<dim>4</dim>
					<dim>4</dim>
				</port>
			</output>
		</layer>
		<layer id="199" name="335" type="Const" version="opset1">
			<data element_type="i64" shape="" offset="9303060" size="8"/>
			<rt_info>
				<attribute name="fused_names" version="0" value="335"/>
			</rt_info>
			<output>
				<port id="0" precision="I64" names="335"/>
			</output>
		</layer>
		<layer id="200" name="Constant_1074" type="Const" version="opset1">
			<data element_type="i64" shape="" offset="100616" size="8"/>
			<rt_info>
				<attribute name="fused_names" version="0" value="Constant_1074"/>
			</rt_info>
			<output>
				<port id="0" precision="I64"/>
			</output>
		</layer>
		<layer id="201" name="336" type="Gather" version="opset8">
			<data batch_dims="0"/>
			<rt_info>
				<attribute name="fused_names" version="0" value="336"/>
			</rt_info>
			<input>
				<port id="0" precision="FP32">
					<dim>1</dim>
					<dim>5</dim>
					<dim>4</dim>
					<dim>4</dim>
				</port>
				<port id="1" precision="I64"/>
				<port id="2" precision="I64"/>
			</input>
			<output>
				<port id="3" precision="FP32" names="336">
					<dim>1</dim>
					<dim>4</dim>
					<dim>4</dim>
				</port>
			</output>
		</layer>
		<layer id="202" name="337" type="MatMul" version="opset1">
			<data transpose_a="false" transpose_b="false"/>
			<rt_info>
				<attribute name="fused_names" version="0" value="337"/>
			</rt_info>
			<input>
				<port id="0" precision="FP32">
					<dim>1</dim>
					<dim>4</dim>
					<dim>4</dim>
				</port>
				<port id="1" precision="FP32">
					<dim>1</dim>
					<dim>4</dim>
					<dim>4</dim>
				</port>
			</input>
			<output>
				<port id="2" precision="FP32" names="337">
					<dim>1</dim>
					<dim>4</dim>
					<dim>4</dim>
				</port>
			</output>
		</layer>
		<layer id="203" name="Constant_1087" type="Const" version="opset1">
			<data element_type="i64" shape="1" offset="100616" size="8"/>
			<rt_info>
				<attribute name="fused_names" version="0" value="Constant_1087"/>
			</rt_info>
			<output>
				<port id="0" precision="I64">
					<dim>1</dim>
				</port>
			</output>
		</layer>
		<layer id="204" name="344" type="Unsqueeze" version="opset1">
			<rt_info>
				<attribute name="fused_names" version="0" value="344"/>
			</rt_info>
			<input>
				<port id="0" precision="FP32">
					<dim>1</dim>
					<dim>4</dim>
					<dim>4</dim>
				</port>
				<port id="1" precision="I64">
					<dim>1</dim>
				</port>
			</input>
			<output>
				<port id="2" precision="FP32" names="344">
					<dim>1</dim>
					<dim>1</dim>
					<dim>4</dim>
					<dim>4</dim>
				</port>
			</output>
		</layer>
		<layer id="205" name="338" type="Const" version="opset1">
			<data element_type="i64" shape="" offset="9303052" size="8"/>
			<rt_info>
				<attribute name="fused_names" version="0" value="338"/>
			</rt_info>
			<output>
				<port id="0" precision="I64" names="338"/>
			</output>
		</layer>
		<layer id="206" name="Constant_1078" type="Const" version="opset1">
			<data element_type="i64" shape="" offset="100616" size="8"/>
			<rt_info>
				<attribute name="fused_names" version="0" value="Constant_1078"/>
			</rt_info>
			<output>
				<port id="0" precision="I64"/>
			</output>
		</layer>
		<layer id="207" name="339" type="Gather" version="opset8">
			<data batch_dims="0"/>
			<rt_info>
				<attribute name="fused_names" version="0" value="339"/>
			</rt_info>
			<input>
				<port id="0" precision="FP32">
					<dim>1</dim>
					<dim>5</dim>
					<dim>4</dim>
					<dim>4</dim>
				</port>
				<port id="1" precision="I64"/>
				<port id="2" precision="I64"/>
			</input>
			<output>
				<port id="3" precision="FP32" names="339">
					<dim>1</dim>
					<dim>4</dim>
					<dim>4</dim>
				</port>
			</output>
		</layer>
		<layer id="208" name="340" type="MatMul" version="opset1">
			<data transpose_a="false" transpose_b="false"/>
			<rt_info>
				<attribute name="fused_names" version="0" value="340"/>
			</rt_info>
			<input>
				<port id="0" precision="FP32">
					<dim>1</dim>
					<dim>4</dim>
					<dim>4</dim>
				</port>
				<port id="1" precision="FP32">
					<dim>1</dim>
					<dim>4</dim>
					<dim>4</dim>
				</port>
			</input>
			<output>
				<port id="2" precision="FP32" names="340">
					<dim>1</dim>
					<dim>4</dim>
					<dim>4</dim>
				</port>
			</output>
		</layer>
		<layer id="209" name="Constant_1089" type="Const" version="opset1">
			<data element_type="i64" shape="1" offset="100616" size="8"/>
			<rt_info>
				<attribute name="fused_names" version="0" value="Constant_1089"/>
			</rt_info>
			<output>
				<port id="0" precision="I64">
					<dim>1</dim>
				</port>
			</output>
		</layer>
		<layer id="210" name="345" type="Unsqueeze" version="opset1">
			<rt_info>
				<attribute name="fused_names" version="0" value="345"/>
			</rt_info>
			<input>
				<port id="0" precision="FP32">
					<dim>1</dim>
					<dim>4</dim>
					<dim>4</dim>
				</port>
				<port id="1" precision="I64">
					<dim>1</dim>
				</port>
			</input>
			<output>
				<port id="2" precision="FP32" names="345">
					<dim>1</dim>
					<dim>1</dim>
					<dim>4</dim>
					<dim>4</dim>
				</port>
			</output>
		</layer>
		<layer id="211" name="346" type="Concat" version="opset1">
			<data axis="1"/>
			<rt_info>
				<attribute name="fused_names" version="0" value="346"/>
			</rt_info>
			<input>
				<port id="0" precision="FP32">
					<dim>1</dim>
					<dim>1</dim>
					<dim>4</dim>
					<dim>4</dim>
				</port>
				<port id="1" precision="FP32">
					<dim>1</dim>
					<dim>1</dim>
					<dim>4</dim>
					<dim>4</dim>
				</port>
				<port id="2" precision="FP32">
					<dim>1</dim>
					<dim>1</dim>
					<dim>4</dim>
					<dim>4</dim>
				</port>
				<port id="3" precision="FP32">
					<dim>1</dim>
					<dim>1</dim>
					<dim>4</dim>
					<dim>4</dim>
				</port>
				<port id="4" precision="FP32">
					<dim>1</dim>
					<dim>1</dim>
					<dim>4</dim>
					<dim>4</dim>
				</port>
			</input>
			<output>
				<port id="5" precision="FP32" names="346">
					<dim>1</dim>
					<dim>5</dim>
					<dim>4</dim>
					<dim>4</dim>
				</port>
			</output>
		</layer>
		<layer id="212" name="Split_1125.0" type="Const" version="opset1">
			<data element_type="i64" shape="4" offset="9303068" size="32"/>
			<output>
				<port id="0" precision="I64">
					<dim>4</dim>
				</port>
			</output>
		</layer>
		<layer id="213" name="Split_1125.1" type="Const" version="opset1">
			<data element_type="i64" shape="4" offset="9303100" size="32"/>
			<output>
				<port id="0" precision="I64">
					<dim>4</dim>
				</port>
			</output>
		</layer>
		<layer id="214" name="369" type="Const" version="opset1">
			<data element_type="f32" shape="" offset="100776" size="4"/>
			<rt_info>
				<attribute name="fused_names" version="0" value="369"/>
			</rt_info>
			<output>
				<port id="0" precision="FP32" names="369"/>
			</output>
		</layer>
		<layer id="215" name="370" type="Pad" version="opset1">
			<data pad_mode="constant"/>
			<rt_info>
				<attribute name="fused_names" version="0" value="370, Constant_1124, Split_1125"/>
			</rt_info>
			<input>
				<port id="0" precision="FP32">
					<dim>1</dim>
					<dim>5</dim>
					<dim>3</dim>
					<dim>1</dim>
				</port>
				<port id="1" precision="I64">
					<dim>4</dim>
				</port>
				<port id="2" precision="I64">
					<dim>4</dim>
				</port>
				<port id="3" precision="FP32"/>
			</input>
			<output>
				<port id="4" precision="FP32" names="370">
					<dim>1</dim>
					<dim>5</dim>
					<dim>4</dim>
					<dim>1</dim>
				</port>
			</output>
		</layer>
		<layer id="216" name="371" type="MatMul" version="opset1">
			<data transpose_a="false" transpose_b="false"/>
			<rt_info>
				<attribute name="fused_names" version="0" value="371"/>
			</rt_info>
			<input>
				<port id="0" precision="FP32">
					<dim>1</dim>
					<dim>5</dim>
					<dim>4</dim>
					<dim>4</dim>
				</port>
				<port id="1" precision="FP32">
					<dim>1</dim>
					<dim>5</dim>
					<dim>4</dim>
					<dim>1</dim>
				</port>
			</input>
			<output>
				<port id="2" precision="FP32" names="371">
					<dim>1</dim>
					<dim>5</dim>
					<dim>4</dim>
					<dim>1</dim>
				</port>
			</output>
		</layer>
		<layer id="217" name="Split_1227.0" type="Const" version="opset1">
			<data element_type="i64" shape="4" offset="9303132" size="32"/>
			<output>
				<port id="0" precision="I64">
					<dim>4</dim>
				</port>
			</output>
		</layer>
		<layer id="218" name="Split_1227.1" type="Const" version="opset1">
			<data element_type="i64" shape="4" offset="9303068" size="32"/>
			<output>
				<port id="0" precision="I64">
					<dim>4</dim>
				</port>
			</output>
		</layer>
		<layer id="219" name="394" type="Const" version="opset1">
			<data element_type="f32" shape="" offset="100776" size="4"/>
			<rt_info>
				<attribute name="fused_names" version="0" value="394"/>
			</rt_info>
			<output>
				<port id="0" precision="FP32" names="394"/>
			</output>
		</layer>
		<layer id="220" name="395" type="Pad" version="opset1">
			<data pad_mode="constant"/>
			<rt_info>
				<attribute name="fused_names" version="0" value="395, Constant_1226, Split_1227"/>
			</rt_info>
			<input>
				<port id="0" precision="FP32">
					<dim>1</dim>
					<dim>5</dim>
					<dim>4</dim>
					<dim>1</dim>
				</port>
				<port id="1" precision="I64">
					<dim>4</dim>
				</port>
				<port id="2" precision="I64">
					<dim>4</dim>
				</port>
				<port id="3" precision="FP32"/>
			</input>
			<output>
				<port id="4" precision="FP32" names="395">
					<dim>1</dim>
					<dim>5</dim>
					<dim>4</dim>
					<dim>4</dim>
				</port>
			</output>
		</layer>
		<layer id="221" name="396" type="Subtract" version="opset1">
			<data auto_broadcast="numpy"/>
			<rt_info>
				<attribute name="fused_names" version="0" value="396"/>
			</rt_info>
			<input>
				<port id="0" precision="FP32">
					<dim>1</dim>
					<dim>5</dim>
					<dim>4</dim>
					<dim>4</dim>
				</port>
				<port id="1" precision="FP32">
					<dim>1</dim>
					<dim>5</dim>
					<dim>4</dim>
					<dim>4</dim>
				</port>
			</input>
			<output>
				<port id="2" precision="FP32" names="396">
					<dim>1</dim>
					<dim>5</dim>
					<dim>4</dim>
					<dim>4</dim>
				</port>
			</output>
		</layer>
		<layer id="222" name="768" type="Const" version="opset1">
			<data element_type="i64" shape="3" offset="9303164" size="24"/>
			<rt_info>
				<attribute name="fused_names" version="0" value="768"/>
			</rt_info>
			<output>
				<port id="0" precision="I64" names="768">
					<dim>3</dim>
				</port>
			</output>
		</layer>
		<layer id="223" name="419" type="Reshape" version="opset1">
			<data special_zero="true"/>
			<rt_info>
				<attribute name="fused_names" version="0" value="419"/>
			</rt_info>
			<input>
				<port id="0" precision="FP32">
					<dim>1</dim>
					<dim>5</dim>
					<dim>4</dim>
					<dim>4</dim>
				</port>
				<port id="1" precision="I64">
					<dim>3</dim>
				</port>
			</input>
			<output>
				<port id="2" precision="FP32" names="419">
					<dim>1</dim>
					<dim>5</dim>
					<dim>16</dim>
				</port>
			</output>
		</layer>
		<layer id="224" name="420" type="MatMul" version="opset1">
			<data transpose_a="false" transpose_b="false"/>
			<rt_info>
				<attribute name="fused_names" version="0" value="411, 412, 420, 763"/>
			</rt_info>
			<input>
				<port id="0" precision="FP32">
					<dim>1</dim>
					<dim>5023</dim>
					<dim>5</dim>
				</port>
				<port id="1" precision="FP32">
					<dim>1</dim>
					<dim>5</dim>
					<dim>16</dim>
				</port>
			</input>
			<output>
				<port id="2" precision="FP32" names="420">
					<dim>1</dim>
					<dim>5023</dim>
					<dim>16</dim>
				</port>
			</output>
		</layer>
		<layer id="225" name="773" type="Const" version="opset1">
			<data element_type="i64" shape="4" offset="9303188" size="32"/>
			<rt_info>
				<attribute name="fused_names" version="0" value="773"/>
			</rt_info>
			<output>
				<port id="0" precision="I64" names="773">
					<dim>4</dim>
				</port>
			</output>
		</layer>
		<layer id="226" name="429" type="Reshape" version="opset1">
			<data special_zero="true"/>
			<rt_info>
				<attribute name="fused_names" version="0" value="429"/>
			</rt_info>
			<input>
				<port id="0" precision="FP32">
					<dim>1</dim>
					<dim>5023</dim>
					<dim>16</dim>
				</port>
				<port id="1" precision="I64">
					<dim>4</dim>
				</port>
			</input>
			<output>
				<port id="2" precision="FP32" names="429">
					<dim>1</dim>
					<dim>5023</dim>
					<dim>4</dim>
					<dim>4</dim>
				</port>
			</output>
		</layer>
		<layer id="227" name="Constant_8014" type="Const" version="opset1">
			<data element_type="i64" shape="2" offset="9302972" size="16"/>
			<rt_info>
				<attribute name="fused_names" version="0" value="127"/>
			</rt_info>
			<output>
				<port id="0" precision="I64">
					<dim>2</dim>
				</port>
			</output>
		</layer>
		<layer id="228" name="Constant_8017" type="Const" version="opset1">
			<data element_type="i64" shape="2" offset="100556" size="16"/>
			<rt_info>
				<attribute name="fused_names" version="0" value="127"/>
			</rt_info>
			<output>
				<port id="0" precision="I64">
					<dim>2</dim>
				</port>
			</output>
		</layer>
		<layer id="229" name="Constant_8020" type="Const" version="opset1">
			<data element_type="i64" shape="2" offset="100528" size="16"/>
			<rt_info>
				<attribute name="fused_names" version="0" value="127"/>
			</rt_info>
			<output>
				<port id="0" precision="I64">
					<dim>2</dim>
				</port>
			</output>
		</layer>
		<layer id="230" name="127" type="StridedSlice" version="opset1">
			<data begin_mask="1, 0" end_mask="1, 0" new_axis_mask="" shrink_axis_mask="" ellipsis_mask=""/>
			<rt_info>
				<attribute name="fused_names" version="0" value="127"/>
			</rt_info>
			<input>
				<port id="0" precision="FP32">
					<dim>1</dim>
					<dim>5</dim>
					<dim>3</dim>
					<dim>3</dim>
				</port>
				<port id="1" precision="I64">
					<dim>2</dim>
				</port>
				<port id="2" precision="I64">
					<dim>2</dim>
				</port>
				<port id="3" precision="I64">
					<dim>2</dim>
				</port>
			</input>
			<output>
				<port id="4" precision="FP32" names="127">
					<dim>1</dim>
					<dim>4</dim>
					<dim>3</dim>
					<dim>3</dim>
				</port>
			</output>
		</layer>
		<layer id="231" name="Constant_9103" type="Const" version="opset1">
			<data element_type="f32" shape="1, 1, 3, 3" offset="100460" size="36"/>
			<output>
				<port id="0" precision="FP32">
					<dim>1</dim>
					<dim>1</dim>
					<dim>3</dim>
					<dim>3</dim>
				</port>
			</output>
		</layer>
		<layer id="232" name="129" type="Subtract" version="opset1">
			<data auto_broadcast="numpy"/>
			<rt_info>
				<attribute name="fused_names" version="0" value="129"/>
			</rt_info>
			<input>
				<port id="0" precision="FP32">
					<dim>1</dim>
					<dim>4</dim>
					<dim>3</dim>
					<dim>3</dim>
				</port>
				<port id="1" precision="FP32">
					<dim>1</dim>
					<dim>1</dim>
					<dim>3</dim>
					<dim>3</dim>
				</port>
			</input>
			<output>
				<port id="2" precision="FP32" names="129">
					<dim>1</dim>
					<dim>4</dim>
					<dim>3</dim>
					<dim>3</dim>
				</port>
			</output>
		</layer>
		<layer id="233" name="729" type="Const" version="opset1">
			<data element_type="i64" shape="2" offset="9303220" size="16"/>
			<rt_info>
				<attribute name="fused_names" version="0" value="729"/>
			</rt_info>
			<output>
				<port id="0" precision="I64" names="729">
					<dim>2</dim>
				</port>
			</output>
		</layer>
		<layer id="234" name="134" type="Reshape" version="opset1">
			<data special_zero="true"/>
			<rt_info>
				<attribute name="fused_names" version="0" value="134"/>
			</rt_info>
			<input>
				<port id="0" precision="FP32">
					<dim>1</dim>
					<dim>4</dim>
					<dim>3</dim>
					<dim>3</dim>
				</port>
				<port id="1" precision="I64">
					<dim>2</dim>
				</port>
			</input>
			<output>
				<port id="2" precision="FP32" names="134">
					<dim>1</dim>
					<dim>36</dim>
				</port>
			</output>
		</layer>
		<layer id="235" name="posedirs" type="Const" version="opset1">
			<data element_type="f32" shape="36, 15069" offset="9303236" size="2169936"/>
			<rt_info>
				<attribute name="fused_names" version="0" value="posedirs"/>
			</rt_info>
			<output>
				<port id="0" precision="FP32" names="posedirs">
					<dim>36</dim>
					<dim>15069</dim>
				</port>
			</output>
		</layer>
		<layer id="236" name="135" type="MatMul" version="opset1">
			<data transpose_a="false" transpose_b="false"/>
			<rt_info>
				<attribute name="fused_names" version="0" value="135"/>
			</rt_info>
			<input>
				<port id="0" precision="FP32">
					<dim>1</dim>
					<dim>36</dim>
				</port>
				<port id="1" precision="FP32">
					<dim>36</dim>
					<dim>15069</dim>
				</port>
			</input>
			<output>
				<port id="2" precision="FP32" names="135">
					<dim>1</dim>
					<dim>15069</dim>
				</port>
			</output>
		</layer>
		<layer id="237" name="733" type="Const" version="opset1">
			<data element_type="i64" shape="3" offset="11473172" size="24"/>
			<rt_info>
				<attribute name="fused_names" version="0" value="733"/>
			</rt_info>
			<output>
				<port id="0" precision="I64" names="733">
					<dim>3</dim>
				</port>
			</output>
		</layer>
		<layer id="238" name="142" type="Reshape" version="opset1">
			<data special_zero="true"/>
			<rt_info>
				<attribute name="fused_names" version="0" value="142"/>
			</rt_info>
			<input>
				<port id="0" precision="FP32">
					<dim>1</dim>
					<dim>15069</dim>
				</port>
				<port id="1" precision="I64">
					<dim>3</dim>
				</port>
			</input>
			<output>
				<port id="2" precision="FP32" names="142">
					<dim>1</dim>
					<dim>5023</dim>
					<dim>3</dim>
				</port>
			</output>
		</layer>
		<layer id="239" name="143" type="Add" version="opset1">
			<data auto_broadcast="numpy"/>
			<rt_info>
				<attribute name="fused_names" version="0" value="143"/>
			</rt_info>
			<input>
				<port id="0" precision="FP32">
					<dim>1</dim>
					<dim>5023</dim>
					<dim>3</dim>
				</port>
				<port id="1" precision="FP32">
					<dim>1</dim>
					<dim>5023</dim>
					<dim>3</dim>
				</port>
			</input>
			<output>
				<port id="2" precision="FP32" names="143">
					<dim>1</dim>
					<dim>5023</dim>
					<dim>3</dim>
				</port>
			</output>
		</layer>
		<layer id="240" name="Constant_1368" type="Const" version="opset1">
			<data element_type="f32" shape="" offset="100692" size="4"/>
			<rt_info>
				<attribute name="fused_names" version="0" value="Constant_1368"/>
			</rt_info>
			<output>
				<port id="0" precision="FP32"/>
			</output>
		</layer>
		<layer id="241" name="774" type="Const" version="opset1">
			<data element_type="i64" shape="1" offset="100616" size="8"/>
			<rt_info>
				<attribute name="fused_names" version="0" value="774"/>
			</rt_info>
			<output>
				<port id="0" precision="I64" names="774">
					<dim>1</dim>
				</port>
			</output>
		</layer>
		<layer id="242" name="430" type="ShapeOf" version="opset3">
			<data output_type="i64"/>
			<rt_info>
				<attribute name="fused_names" version="0" value="430"/>
			</rt_info>
			<input>
				<port id="0" precision="FP32">
					<dim>1</dim>
					<dim>5023</dim>
					<dim>3</dim>
				</port>
			</input>
			<output>
				<port id="1" precision="I64" names="430">
					<dim>3</dim>
				</port>
			</output>
		</layer>
		<layer id="243" name="Constant_7955" type="Const" version="opset1">
			<data element_type="i64" shape="1" offset="100616" size="8"/>
			<rt_info>
				<attribute name="fused_names" version="0" value="431, 432, 435, Constant_1362, Constant_1364"/>
			</rt_info>
			<output>
				<port id="0" precision="I64">
					<dim>1</dim>
				</port>
			</output>
		</layer>
		<layer id="244" name="Constant_1362" type="Const" version="opset1">
			<data element_type="i64" shape="" offset="9302924" size="8"/>
			<rt_info>
				<attribute name="fused_names" version="0" value="Constant_1362"/>
			</rt_info>
			<output>
				<port id="0" precision="I64"/>
			</output>
		</layer>
		<layer id="245" name="432" type="Gather" version="opset8">
			<data batch_dims="0"/>
			<rt_info>
				<attribute name="fused_names" version="0" value="431, 432, 435, Constant_1362, Constant_1364"/>
			</rt_info>
			<input>
				<port id="0" precision="I64">
					<dim>3</dim>
				</port>
				<port id="1" precision="I64">
					<dim>1</dim>
				</port>
				<port id="2" precision="I64"/>
			</input>
			<output>
				<port id="3" precision="I64" names="435">
					<dim>1</dim>
				</port>
			</output>
		</layer>
		<layer id="246" name="775" type="Const" version="opset1">
			<data element_type="i64" shape="1" offset="100616" size="8"/>
			<rt_info>
				<attribute name="fused_names" version="0" value="775"/>
			</rt_info>
			<output>
				<port id="0" precision="I64" names="775">
					<dim>1</dim>
				</port>
			</output>
		</layer>
		<layer id="247" name="437" type="Concat" version="opset1">
			<data axis="0"/>
			<rt_info>
				<attribute name="fused_names" version="0" value="437, 774, 775"/>
			</rt_info>
			<input>
				<port id="0" precision="I64">
					<dim>1</dim>
				</port>
				<port id="1" precision="I64">
					<dim>1</dim>
				</port>
				<port id="2" precision="I64">
					<dim>1</dim>
				</port>
			</input>
			<output>
				<port id="3" precision="I64" names="437">
					<dim>3</dim>
				</port>
			</output>
		</layer>
		<layer id="248" name="438" type="Broadcast" version="opset3">
			<data mode="numpy"/>
			<rt_info>
				<attribute name="fused_names" version="0" value="438"/>
			</rt_info>
			<input>
				<port id="0" precision="FP32"/>
				<port id="1" precision="I64">
					<dim>3</dim>
				</port>
			</input>
			<output>
				<port id="2" precision="FP32" names="438">
					<dim>1</dim>
					<dim>5023</dim>
					<dim>1</dim>
				</port>
			</output>
		</layer>
		<layer id="249" name="439" type="Concat" version="opset1">
			<data axis="2"/>
			<rt_info>
				<attribute name="fused_names" version="0" value="439"/>
			</rt_info>
			<input>
				<port id="0" precision="FP32">
					<dim>1</dim>
					<dim>5023</dim>
					<dim>3</dim>
				</port>
				<port id="1" precision="FP32">
					<dim>1</dim>
					<dim>5023</dim>
					<dim>1</dim>
				</port>
			</input>
			<output>
				<port id="2" precision="FP32" names="439">
					<dim>1</dim>
					<dim>5023</dim>
					<dim>4</dim>
				</port>
			</output>
		</layer>
		<layer id="250" name="Constant_1400" type="Const" version="opset1">
			<data element_type="i64" shape="1" offset="9302916" size="8"/>
			<rt_info>
				<attribute name="fused_names" version="0" value="Constant_1400"/>
			</rt_info>
			<output>
				<port id="0" precision="I64">
					<dim>1</dim>
				</port>
			</output>
		</layer>
		<layer id="251" name="440" type="Unsqueeze" version="opset1">
			<rt_info>
				<attribute name="fused_names" version="0" value="440"/>
			</rt_info>
			<input>
				<port id="0" precision="FP32">
					<dim>1</dim>
					<dim>5023</dim>
					<dim>4</dim>
				</port>
				<port id="1" precision="I64">
					<dim>1</dim>
				</port>
			</input>
			<output>
				<port id="2" precision="FP32" names="440">
					<dim>1</dim>
					<dim>5023</dim>
					<dim>4</dim>
					<dim>1</dim>
				</port>
			</output>
		</layer>
		<layer id="252" name="441" type="MatMul" version="opset1">
			<data transpose_a="false" transpose_b="false"/>
			<rt_info>
				<attribute name="fused_names" version="0" value="441"/>
			</rt_info>
			<input>
				<port id="0" precision="FP32">
					<dim>1</dim>
					<dim>5023</dim>
					<dim>4</dim>
					<dim>4</dim>
				</port>
				<port id="1" precision="FP32">
					<dim>1</dim>
					<dim>5023</dim>
					<dim>4</dim>
					<dim>1</dim>
				</port>
			</input>
			<output>
				<port id="2" precision="FP32" names="441">
					<dim>1</dim>
					<dim>5023</dim>
					<dim>4</dim>
					<dim>1</dim>
				</port>
			</output>
		</layer>
		<layer id="253" name="Constant_8026" type="Const" version="opset1">
			<data element_type="i64" shape="3" offset="100572" size="24"/>
			<rt_info>
				<attribute name="fused_names" version="0" value="446"/>
			</rt_info>
			<output>
				<port id="0" precision="I64">
					<dim>3</dim>
				</port>
			</output>
		</layer>
		<layer id="254" name="Constant_8029" type="Const" version="opset1">
			<data element_type="i64" shape="3" offset="11473196" size="24"/>
			<rt_info>
				<attribute name="fused_names" version="0" value="446"/>
			</rt_info>
			<output>
				<port id="0" precision="I64">
					<dim>3</dim>
				</port>
			</output>
		</layer>
		<layer id="255" name="Constant_8032" type="Const" version="opset1">
			<data element_type="i64" shape="3" offset="100644" size="24"/>
			<rt_info>
				<attribute name="fused_names" version="0" value="446"/>
			</rt_info>
			<output>
				<port id="0" precision="I64">
					<dim>3</dim>
				</port>
			</output>
		</layer>
		<layer id="256" name="446" type="StridedSlice" version="opset1">
			<data begin_mask="1, 1, 0" end_mask="1, 1, 0" new_axis_mask="" shrink_axis_mask="" ellipsis_mask=""/>
			<rt_info>
				<attribute name="fused_names" version="0" value="446"/>
			</rt_info>
			<input>
				<port id="0" precision="FP32">
					<dim>1</dim>
					<dim>5023</dim>
					<dim>4</dim>
					<dim>1</dim>
				</port>
				<port id="1" precision="I64">
					<dim>3</dim>
				</port>
				<port id="2" precision="I64">
					<dim>3</dim>
				</port>
				<port id="3" precision="I64">
					<dim>3</dim>
				</port>
			</input>
			<output>
				<port id="4" precision="FP32" names="446">
					<dim>1</dim>
					<dim>5023</dim>
					<dim>3</dim>
					<dim>1</dim>
				</port>
			</output>
		</layer>
		<layer id="257" name="447" type="Const" version="opset1">
			<data element_type="i64" shape="" offset="9302924" size="8"/>
			<rt_info>
				<attribute name="fused_names" version="0" value="447"/>
			</rt_info>
			<output>
				<port id="0" precision="I64" names="447"/>
			</output>
		</layer>
		<layer id="258" name="Constant_1409" type="Const" version="opset1">
			<data element_type="i64" shape="" offset="9303060" size="8"/>
			<rt_info>
				<attribute name="fused_names" version="0" value="Constant_1409"/>
			</rt_info>
			<output>
				<port id="0" precision="I64"/>
			</output>
		</layer>
		<layer id="259" name="448" type="Gather" version="opset8">
			<data batch_dims="0"/>
			<rt_info>
				<attribute name="fused_names" version="0" value="448"/>
			</rt_info>
			<input>
				<port id="0" precision="FP32">
					<dim>1</dim>
					<dim>5023</dim>
					<dim>3</dim>
					<dim>1</dim>
				</port>
				<port id="1" precision="I64"/>
				<port id="2" precision="I64"/>
			</input>
			<output>
				<port id="3" precision="FP32" names="448">
					<dim>1</dim>
					<dim>5023</dim>
					<dim>3</dim>
				</port>
			</output>
		</layer>
		<layer id="260" name="688" type="Const" version="opset1">
			<data element_type="i64" shape="2" offset="100596" size="16"/>
			<rt_info>
				<attribute name="fused_names" version="0" value="688"/>
			</rt_info>
			<output>
				<port id="0" precision="I64" names="688">
					<dim>2</dim>
				</port>
			</output>
		</layer>
		<layer id="261" name="689" type="Reshape" version="opset1">
			<data special_zero="true"/>
			<rt_info>
				<attribute name="fused_names" version="0" value="689"/>
			</rt_info>
			<input>
				<port id="0" precision="FP32">
					<dim>1</dim>
					<dim>5023</dim>
					<dim>3</dim>
				</port>
				<port id="1" precision="I64">
					<dim>2</dim>
				</port>
			</input>
			<output>
				<port id="2" precision="FP32" names="689">
					<dim>5023</dim>
					<dim>3</dim>
				</port>
			</output>
		</layer>
		<layer id="262" name="687" type="Const" version="opset1">
			<data element_type="i64" shape="1, 68, 3" offset="11473220" size="1632"/>
			<output>
				<port id="0" precision="I64" names="687">
					<dim>1</dim>
					<dim>68</dim>
					<dim>3</dim>
				</port>
			</output>
		</layer>
		<layer id="263" name="Constant_2061" type="Const" version="opset1">
			<data element_type="i64" shape="" offset="9302924" size="8"/>
			<rt_info>
				<attribute name="fused_names" version="0" value="Constant_2061"/>
			</rt_info>
			<output>
				<port id="0" precision="I64"/>
			</output>
		</layer>
		<layer id="264" name="690" type="Gather" version="opset8">
			<data batch_dims="0"/>
			<rt_info>
				<attribute name="fused_names" version="0" value="658, 659, 660, 677, 678, 685, 687, 690, 826, 827, Constant_1972, Convert_1991"/>
			</rt_info>
			<input>
				<port id="0" precision="FP32">
					<dim>5023</dim>
					<dim>3</dim>
				</port>
				<port id="1" precision="I64">
					<dim>1</dim>
					<dim>68</dim>
					<dim>3</dim>
				</port>
				<port id="2" precision="I64"/>
			</input>
			<output>
				<port id="3" precision="FP32" names="690">
					<dim>1</dim>
					<dim>68</dim>
					<dim>3</dim>
					<dim>3</dim>
				</port>
			</output>
		</layer>
		<layer id="265" name="845" type="Const" version="opset1">
			<data element_type="i64" shape="4" offset="100696" size="32"/>
			<rt_info>
				<attribute name="fused_names" version="0" value="845"/>
			</rt_info>
			<output>
				<port id="0" precision="I64" names="845">
					<dim>4</dim>
				</port>
			</output>
		</layer>
		<layer id="266" name="699" type="Reshape" version="opset1">
			<data special_zero="true"/>
			<rt_info>
				<attribute name="fused_names" version="0" value="699"/>
			</rt_info>
			<input>
				<port id="0" precision="FP32">
					<dim>1</dim>
					<dim>68</dim>
					<dim>3</dim>
					<dim>3</dim>
				</port>
				<port id="1" precision="I64">
					<dim>4</dim>
				</port>
			</input>
			<output>
				<port id="2" precision="FP32" names="699">
					<dim>1</dim>
					<dim>68</dim>
					<dim>3</dim>
					<dim>3</dim>
				</port>
			</output>
		</layer>
		<layer id="267" name="674" type="Const" version="opset1">
			<data element_type="f32" shape="1, 68, 3" offset="11474852" size="816"/>
			<output>
				<port id="0" precision="FP32" names="674">
					<dim>1</dim>
					<dim>68</dim>
					<dim>3</dim>
				</port>
			</output>
		</layer>
		<layer id="268" name="700" type="Einsum" version="opset7">
			<data equation="blfi,blf-&gt;bli"/>
			<rt_info>
				<attribute name="fused_names" version="0" value="672, 673, 674, 700, 835, 836, Constant_2005, Convert_2024"/>
			</rt_info>
			<input>
				<port id="0" precision="FP32">
					<dim>1</dim>
					<dim>68</dim>
					<dim>3</dim>
					<dim>3</dim>
				</port>
				<port id="1" precision="FP32">
					<dim>1</dim>
					<dim>68</dim>
					<dim>3</dim>
				</port>
			</input>
			<output>
				<port id="2" precision="FP32" names="700">
					<dim>1</dim>
					<dim>68</dim>
					<dim>3</dim>
				</port>
			</output>
		</layer>
		<layer id="270" name="636" type="Const" version="opset1">
			<data element_type="i64" shape="2" offset="100596" size="16"/>
			<rt_info>
				<attribute name="fused_names" version="0" value="636"/>
			</rt_info>
			<output>
				<port id="0" precision="I64" names="636">
					<dim>2</dim>
				</port>
			</output>
		</layer>
		<layer id="271" name="637" type="Reshape" version="opset1">
			<data special_zero="true"/>
			<rt_info>
				<attribute name="fused_names" version="0" value="637"/>
			</rt_info>
			<input>
				<port id="0" precision="FP32">
					<dim>1</dim>
					<dim>5023</dim>
					<dim>3</dim>
				</port>
				<port id="1" precision="I64">
					<dim>2</dim>
				</port>
			</input>
			<output>
				<port id="2" precision="FP32" names="637">
					<dim>5023</dim>
					<dim>3</dim>
				</port>
			</output>
		</layer>
		<layer id="272" name="faces_tensor" type="Const" version="opset1">
			<data element_type="i64" shape="9976, 3" offset="11475668" size="239424"/>
			<rt_info>
				<attribute name="fused_names" version="0" value="faces_tensor"/>
			</rt_info>
			<output>
				<port id="0" precision="I64" names="faces_tensor">
					<dim>9976</dim>
					<dim>3</dim>
				</port>
			</output>
		</layer>
		<layer id="273" name="dynamic_lmk_faces_idx" type="Const" version="opset1">
			<data element_type="i64" shape="79, 17" offset="11715092" size="10744"/>
			<rt_info>
				<attribute name="fused_names" version="0" value="dynamic_lmk_faces_idx"/>
			</rt_info>
			<output>
				<port id="0" precision="I64" names="dynamic_lmk_faces_idx">
					<dim>79</dim>
					<dim>17</dim>
				</port>
			</output>
		</layer>
		<layer id="274" name="517" type="Const" version="opset1">
			<data element_type="f32" shape="1, 3, 3" offset="100460" size="36"/>
			<rt_info>
				<attribute name="fused_names" version="0" value="517"/>
			</rt_info>
			<output>
				<port id="0" precision="FP32" names="517">
					<dim>1</dim>
					<dim>3</dim>
					<dim>3</dim>
				</port>
			</output>
		</layer>
		<layer id="275" name="792" type="Const" version="opset1">
			<data element_type="i64" shape="3" offset="11473172" size="24"/>
			<rt_info>
				<attribute name="fused_names" version="0" value="792"/>
			</rt_info>
			<output>
				<port id="0" precision="I64" names="792">
					<dim>3</dim>
				</port>
			</output>
		</layer>
		<layer id="276" name="486" type="Reshape" version="opset1">
			<data special_zero="true"/>
			<rt_info>
				<attribute name="fused_names" version="0" value="486"/>
			</rt_info>
			<input>
				<port id="0" precision="FP32">
					<dim>1</dim>
					<dim>15</dim>
				</port>
				<port id="1" precision="I64">
					<dim>3</dim>
				</port>
			</input>
			<output>
				<port id="2" precision="FP32" names="486">
					<dim>1</dim>
					<dim>5</dim>
					<dim>3</dim>
				</port>
			</output>
		</layer>
		<layer id="277" name="neck_kin_chain" type="Const" version="opset1">
			<data element_type="i64" shape="2" offset="11725836" size="16"/>
			<rt_info>
				<attribute name="fused_names" version="0" value="neck_kin_chain"/>
			</rt_info>
			<output>
				<port id="0" precision="I64" names="neck_kin_chain">
					<dim>2</dim>
				</port>
			</output>
		</layer>
		<layer id="278" name="Constant_1519" type="Const" version="opset1">
			<data element_type="i64" shape="" offset="100616" size="8"/>
			<rt_info>
				<attribute name="fused_names" version="0" value="Constant_1519"/>
			</rt_info>
			<output>
				<port id="0" precision="I64"/>
			</output>
		</layer>
		<layer id="279" name="487" type="Gather" version="opset8">
			<data batch_dims="0"/>
			<rt_info>
				<attribute name="fused_names" version="0" value="487"/>
			</rt_info>
			<input>
				<port id="0" precision="FP32">
					<dim>1</dim>
					<dim>5</dim>
					<dim>3</dim>
				</port>
				<port id="1" precision="I64">
					<dim>2</dim>
				</port>
				<port id="2" precision="I64"/>
			</input>
			<output>
				<port id="3" precision="FP32" names="487">
					<dim>1</dim>
					<dim>2</dim>
					<dim>3</dim>
				</port>
			</output>
		</layer>
		<layer id="280" name="488" type="Const" version="opset1">
			<data element_type="i64" shape="2" offset="100596" size="16"/>
			<rt_info>
				<attribute name="fused_names" version="0" value="488"/>
			</rt_info>
			<output>
				<port id="0" precision="I64" names="488">
					<dim>2</dim>
				</port>
			</output>
		</layer>
		<layer id="281" name="489" type="Reshape" version="opset1">
			<data special_zero="true"/>
			<rt_info>
				<attribute name="fused_names" version="0" value="489"/>
			</rt_info>
			<input>
				<port id="0" precision="FP32">
					<dim>1</dim>
					<dim>2</dim>
					<dim>3</dim>
				</port>
				<port id="1" precision="I64">
					<dim>2</dim>
				</port>
			</input>
			<output>
				<port id="2" precision="FP32" names="489">
					<dim>2</dim>
					<dim>3</dim>
				</port>
			</output>
		</layer>
		<layer id="282" name="Constant_9104" type="Const" version="opset1">
			<data element_type="f32" shape="1, 1" offset="100612" size="4"/>
			<output>
				<port id="0" precision="FP32">
					<dim>1</dim>
					<dim>1</dim>
				</port>
			</output>
		</layer>
		<layer id="283" name="492" type="Add" version="opset1">
			<data auto_broadcast="numpy"/>
			<rt_info>
				<attribute name="fused_names" version="0" value="492"/>
			</rt_info>
			<input>
				<port id="0" precision="FP32">
					<dim>2</dim>
					<dim>3</dim>
				</port>
				<port id="1" precision="FP32">
					<dim>1</dim>
					<dim>1</dim>
				</port>
			</input>
			<output>
				<port id="2" precision="FP32" names="492">
					<dim>2</dim>
					<dim>3</dim>
				</port>
			</output>
		</layer>
		<layer id="284" name="493" type="Multiply" version="opset1">
			<data auto_broadcast="numpy"/>
			<rt_info>
				<attribute name="fused_names" version="0" value="493"/>
			</rt_info>
			<input>
				<port id="0" precision="FP32">
					<dim>2</dim>
					<dim>3</dim>
				</port>
				<port id="1" precision="FP32">
					<dim>2</dim>
					<dim>3</dim>
				</port>
			</input>
			<output>
				<port id="2" precision="FP32" names="493">
					<dim>2</dim>
					<dim>3</dim>
				</port>
			</output>
		</layer>
		<layer id="285" name="Constant_1531" type="Const" version="opset1">
			<data element_type="i64" shape="1" offset="100616" size="8"/>
			<rt_info>
				<attribute name="fused_names" version="0" value="Constant_1531"/>
			</rt_info>
			<output>
				<port id="0" precision="I64">
					<dim>1</dim>
				</port>
			</output>
		</layer>
		<layer id="286" name="494" type="ReduceSum" version="opset1">
			<data keep_dims="true"/>
			<rt_info>
				<attribute name="fused_names" version="0" value="494"/>
			</rt_info>
			<input>
				<port id="0" precision="FP32">
					<dim>2</dim>
					<dim>3</dim>
				</port>
				<port id="1" precision="I64">
					<dim>1</dim>
				</port>
			</input>
			<output>
				<port id="2" precision="FP32" names="494">
					<dim>2</dim>
					<dim>1</dim>
				</port>
			</output>
		</layer>
		<layer id="287" name="495" type="Sqrt" version="opset1">
			<rt_info>
				<attribute name="fused_names" version="0" value="495"/>
			</rt_info>
			<input>
				<port id="0" precision="FP32">
					<dim>2</dim>
					<dim>1</dim>
				</port>
			</input>
			<output>
				<port id="1" precision="FP32" names="495">
					<dim>2</dim>
					<dim>1</dim>
				</port>
			</output>
		</layer>
		<layer id="288" name="499" type="Sin" version="opset1">
			<rt_info>
				<attribute name="fused_names" version="0" value="499"/>
			</rt_info>
			<input>
				<port id="0" precision="FP32">
					<dim>2</dim>
					<dim>1</dim>
				</port>
			</input>
			<output>
				<port id="1" precision="FP32" names="499">
					<dim>2</dim>
					<dim>1</dim>
				</port>
			</output>
		</layer>
		<layer id="289" name="Constant_1539" type="Const" version="opset1">
			<data element_type="i64" shape="1" offset="100616" size="8"/>
			<rt_info>
				<attribute name="fused_names" version="0" value="Constant_1539"/>
			</rt_info>
			<output>
				<port id="0" precision="I64">
					<dim>1</dim>
				</port>
			</output>
		</layer>
		<layer id="290" name="500" type="Unsqueeze" version="opset1">
			<rt_info>
				<attribute name="fused_names" version="0" value="500"/>
			</rt_info>
			<input>
				<port id="0" precision="FP32">
					<dim>2</dim>
					<dim>1</dim>
				</port>
				<port id="1" precision="I64">
					<dim>1</dim>
				</port>
			</input>
			<output>
				<port id="2" precision="FP32" names="500">
					<dim>2</dim>
					<dim>1</dim>
					<dim>1</dim>
				</port>
			</output>
		</layer>
		<layer id="291" name="504" type="Const" version="opset1">
			<data element_type="f32" shape="2, 1" offset="9302924" size="8"/>
			<rt_info>
				<attribute name="fused_names" version="0" value="504"/>
			</rt_info>
			<output>
				<port id="0" precision="FP32" names="504">
					<dim>2</dim>
					<dim>1</dim>
				</port>
			</output>
		</layer>
		<layer id="292" name="496" type="Divide" version="opset1">
			<data auto_broadcast="numpy" m_pythondiv="true"/>
			<rt_info>
				<attribute name="fused_names" version="0" value="496"/>
			</rt_info>
			<input>
				<port id="0" precision="FP32">
					<dim>2</dim>
					<dim>3</dim>
				</port>
				<port id="1" precision="FP32">
					<dim>2</dim>
					<dim>1</dim>
				</port>
			</input>
			<output>
				<port id="2" precision="FP32" names="496">
					<dim>2</dim>
					<dim>3</dim>
				</port>
			</output>
		</layer>
		<layer id="293" name="Constant_1541" type="Const" version="opset1">
			<data element_type="i64" shape="" offset="100616" size="8"/>
			<rt_info>
				<attribute name="fused_names" version="0" value="Constant_1541"/>
			</rt_info>
			<output>
				<port id="0" precision="I64"/>
			</output>
		</layer>
		<layer id="294" name="Constant_1542" type="Const" version="opset1">
			<data element_type="i64" shape="3" offset="100644" size="24"/>
			<rt_info>
				<attribute name="fused_names" version="0" value="Constant_1542"/>
			</rt_info>
			<output>
				<port id="0" precision="I64">
					<dim>3</dim>
				</port>
			</output>
		</layer>
		<layer id="295" name="503" type="VariadicSplit" version="opset1">
			<rt_info>
				<attribute name="fused_names" version="0" value="503"/>
			</rt_info>
			<input>
				<port id="0" precision="FP32">
					<dim>2</dim>
					<dim>3</dim>
				</port>
				<port id="1" precision="I64"/>
				<port id="2" precision="I64">
					<dim>3</dim>
				</port>
			</input>
			<output>
				<port id="3" precision="FP32" names="501">
					<dim>2</dim>
					<dim>1</dim>
				</port>
				<port id="4" precision="FP32" names="502">
					<dim>2</dim>
					<dim>1</dim>
				</port>
				<port id="5" precision="FP32" names="503">
					<dim>2</dim>
					<dim>1</dim>
				</port>
			</output>
		</layer>
		<layer id="296" name="505" type="Negative" version="opset1">
			<rt_info>
				<attribute name="fused_names" version="0" value="505"/>
			</rt_info>
			<input>
				<port id="0" precision="FP32">
					<dim>2</dim>
					<dim>1</dim>
				</port>
			</input>
			<output>
				<port id="1" precision="FP32" names="505">
					<dim>2</dim>
					<dim>1</dim>
				</port>
			</output>
		</layer>
		<layer id="297" name="506" type="Negative" version="opset1">
			<rt_info>
				<attribute name="fused_names" version="0" value="506"/>
			</rt_info>
			<input>
				<port id="0" precision="FP32">
					<dim>2</dim>
					<dim>1</dim>
				</port>
			</input>
			<output>
				<port id="1" precision="FP32" names="506">
					<dim>2</dim>
					<dim>1</dim>
				</port>
			</output>
		</layer>
		<layer id="298" name="507" type="Negative" version="opset1">
			<rt_info>
				<attribute name="fused_names" version="0" value="507"/>
			</rt_info>
			<input>
				<port id="0" precision="FP32">
					<dim>2</dim>
					<dim>1</dim>
				</port>
			</input>
			<output>
				<port id="1" precision="FP32" names="507">
					<dim>2</dim>
					<dim>1</dim>
				</port>
			</output>
		</layer>
		<layer id="299" name="508" type="Concat" version="opset1">
			<data axis="1"/>
			<rt_info>
				<attribute name="fused_names" version="0" value="508"/>
			</rt_info>
			<input>
				<port id="0" precision="FP32">
					<dim>2</dim>
					<dim>1</dim>
				</port>
				<port id="1" precision="FP32">
					<dim>2</dim>
					<dim>1</dim>
				</port>
				<port id="2" precision="FP32">
					<dim>2</dim>
					<dim>1</dim>
				</port>
				<port id="3" precision="FP32">
					<dim>2</dim>
					<dim>1</dim>
				</port>
				<port id="4" precision="FP32">
					<dim>2</dim>
					<dim>1</dim>
				</port>
				<port id="5" precision="FP32">
					<dim>2</dim>
					<dim>1</dim>
				</port>
				<port id="6" precision="FP32">
					<dim>2</dim>
					<dim>1</dim>
				</port>
				<port id="7" precision="FP32">
					<dim>2</dim>
					<dim>1</dim>
				</port>
				<port id="8" precision="FP32">
					<dim>2</dim>
					<dim>1</dim>
				</port>
			</input>
			<output>
				<port id="9" precision="FP32" names="508">
					<dim>2</dim>
					<dim>9</dim>
				</port>
			</output>
		</layer>
		<layer id="300" name="796" type="Const" version="opset1">
			<data element_type="i64" shape="3" offset="11725852" size="24"/>
			<rt_info>
				<attribute name="fused_names" version="0" value="796"/>
			</rt_info>
			<output>
				<port id="0" precision="I64" names="796">
					<dim>3</dim>
				</port>
			</output>
		</layer>
		<layer id="301" name="515" type="Reshape" version="opset1">
			<data special_zero="true"/>
			<rt_info>
				<attribute name="fused_names" version="0" value="515"/>
			</rt_info>
			<input>
				<port id="0" precision="FP32">
					<dim>2</dim>
					<dim>9</dim>
				</port>
				<port id="1" precision="I64">
					<dim>3</dim>
				</port>
			</input>
			<output>
				<port id="2" precision="FP32" names="515">
					<dim>2</dim>
					<dim>3</dim>
					<dim>3</dim>
				</port>
			</output>
		</layer>
		<layer id="302" name="516" type="Multiply" version="opset1">
			<data auto_broadcast="numpy"/>
			<rt_info>
				<attribute name="fused_names" version="0" value="516"/>
			</rt_info>
			<input>
				<port id="0" precision="FP32">
					<dim>2</dim>
					<dim>1</dim>
					<dim>1</dim>
				</port>
				<port id="1" precision="FP32">
					<dim>2</dim>
					<dim>3</dim>
					<dim>3</dim>
				</port>
			</input>
			<output>
				<port id="2" precision="FP32" names="516">
					<dim>2</dim>
					<dim>3</dim>
					<dim>3</dim>
				</port>
			</output>
		</layer>
		<layer id="303" name="518" type="Add" version="opset1">
			<data auto_broadcast="numpy"/>
			<rt_info>
				<attribute name="fused_names" version="0" value="518"/>
			</rt_info>
			<input>
				<port id="0" precision="FP32">
					<dim>1</dim>
					<dim>3</dim>
					<dim>3</dim>
				</port>
				<port id="1" precision="FP32">
					<dim>2</dim>
					<dim>3</dim>
					<dim>3</dim>
				</port>
			</input>
			<output>
				<port id="2" precision="FP32" names="518">
					<dim>2</dim>
					<dim>3</dim>
					<dim>3</dim>
				</port>
			</output>
		</layer>
		<layer id="304" name="Constant_9105" type="Const" version="opset1">
			<data element_type="f32" shape="1, 1, 1" offset="100692" size="4"/>
			<output>
				<port id="0" precision="FP32">
					<dim>1</dim>
					<dim>1</dim>
					<dim>1</dim>
				</port>
			</output>
		</layer>
		<layer id="305" name="497" type="Cos" version="opset1">
			<rt_info>
				<attribute name="fused_names" version="0" value="497"/>
			</rt_info>
			<input>
				<port id="0" precision="FP32">
					<dim>2</dim>
					<dim>1</dim>
				</port>
			</input>
			<output>
				<port id="1" precision="FP32" names="497">
					<dim>2</dim>
					<dim>1</dim>
				</port>
			</output>
		</layer>
		<layer id="306" name="Constant_1536" type="Const" version="opset1">
			<data element_type="i64" shape="1" offset="100616" size="8"/>
			<rt_info>
				<attribute name="fused_names" version="0" value="Constant_1536"/>
			</rt_info>
			<output>
				<port id="0" precision="I64">
					<dim>1</dim>
				</port>
			</output>
		</layer>
		<layer id="307" name="498" type="Unsqueeze" version="opset1">
			<rt_info>
				<attribute name="fused_names" version="0" value="498"/>
			</rt_info>
			<input>
				<port id="0" precision="FP32">
					<dim>2</dim>
					<dim>1</dim>
				</port>
				<port id="1" precision="I64">
					<dim>1</dim>
				</port>
			</input>
			<output>
				<port id="2" precision="FP32" names="498">
					<dim>2</dim>
					<dim>1</dim>
					<dim>1</dim>
				</port>
			</output>
		</layer>
		<layer id="308" name="520" type="Subtract" version="opset1">
			<data auto_broadcast="numpy"/>
			<rt_info>
				<attribute name="fused_names" version="0" value="520"/>
			</rt_info>
			<input>
				<port id="0" precision="FP32">
					<dim>1</dim>
					<dim>1</dim>
					<dim>1</dim>
				</port>
				<port id="1" precision="FP32">
					<dim>2</dim>
					<dim>1</dim>
					<dim>1</dim>
				</port>
			</input>
			<output>
				<port id="2" precision="FP32" names="520">
					<dim>2</dim>
					<dim>1</dim>
					<dim>1</dim>
				</port>
			</output>
		</layer>
		<layer id="309" name="521" type="MatMul" version="opset1">
			<data transpose_a="false" transpose_b="false"/>
			<rt_info>
				<attribute name="fused_names" version="0" value="521"/>
			</rt_info>
			<input>
				<port id="0" precision="FP32">
					<dim>2</dim>
					<dim>3</dim>
					<dim>3</dim>
				</port>
				<port id="1" precision="FP32">
					<dim>2</dim>
					<dim>3</dim>
					<dim>3</dim>
				</port>
			</input>
			<output>
				<port id="2" precision="FP32" names="521">
					<dim>2</dim>
					<dim>3</dim>
					<dim>3</dim>
				</port>
			</output>
		</layer>
		<layer id="310" name="522" type="Multiply" version="opset1">
			<data auto_broadcast="numpy"/>
			<rt_info>
				<attribute name="fused_names" version="0" value="522"/>
			</rt_info>
			<input>
				<port id="0" precision="FP32">
					<dim>2</dim>
					<dim>1</dim>
					<dim>1</dim>
				</port>
				<port id="1" precision="FP32">
					<dim>2</dim>
					<dim>3</dim>
					<dim>3</dim>
				</port>
			</input>
			<output>
				<port id="2" precision="FP32" names="522">
					<dim>2</dim>
					<dim>3</dim>
					<dim>3</dim>
				</port>
			</output>
		</layer>
		<layer id="311" name="523" type="Add" version="opset1">
			<data auto_broadcast="numpy"/>
			<rt_info>
				<attribute name="fused_names" version="0" value="523"/>
			</rt_info>
			<input>
				<port id="0" precision="FP32">
					<dim>2</dim>
					<dim>3</dim>
					<dim>3</dim>
				</port>
				<port id="1" precision="FP32">
					<dim>2</dim>
					<dim>3</dim>
					<dim>3</dim>
				</port>
			</input>
			<output>
				<port id="2" precision="FP32" names="523">
					<dim>2</dim>
					<dim>3</dim>
					<dim>3</dim>
				</port>
			</output>
		</layer>
		<layer id="312" name="801" type="Const" version="opset1">
			<data element_type="i64" shape="4" offset="100696" size="32"/>
			<rt_info>
				<attribute name="fused_names" version="0" value="801"/>
			</rt_info>
			<output>
				<port id="0" precision="I64" names="801">
					<dim>4</dim>
				</port>
			</output>
		</layer>
		<layer id="313" name="532" type="Reshape" version="opset1">
			<data special_zero="true"/>
			<rt_info>
				<attribute name="fused_names" version="0" value="532"/>
			</rt_info>
			<input>
				<port id="0" precision="FP32">
					<dim>2</dim>
					<dim>3</dim>
					<dim>3</dim>
				</port>
				<port id="1" precision="I64">
					<dim>4</dim>
				</port>
			</input>
			<output>
				<port id="2" precision="FP32" names="532">
					<dim>1</dim>
					<dim>2</dim>
					<dim>3</dim>
					<dim>3</dim>
				</port>
			</output>
		</layer>
		<layer id="314" name="557" type="Const" version="opset1">
			<data element_type="i64" shape="" offset="100616" size="8"/>
			<rt_info>
				<attribute name="fused_names" version="0" value="557"/>
			</rt_info>
			<output>
				<port id="0" precision="I64" names="557"/>
			</output>
		</layer>
		<layer id="315" name="Constant_1861" type="Const" version="opset1">
			<data element_type="i64" shape="" offset="100616" size="8"/>
			<rt_info>
				<attribute name="fused_names" version="0" value="Constant_1861"/>
			</rt_info>
			<output>
				<port id="0" precision="I64"/>
			</output>
		</layer>
		<layer id="316" name="558" type="Gather" version="opset8">
			<data batch_dims="0"/>
			<rt_info>
				<attribute name="fused_names" version="0" value="558"/>
			</rt_info>
			<input>
				<port id="0" precision="FP32">
					<dim>1</dim>
					<dim>2</dim>
					<dim>3</dim>
					<dim>3</dim>
				</port>
				<port id="1" precision="I64"/>
				<port id="2" precision="I64"/>
			</input>
			<output>
				<port id="3" precision="FP32" names="558">
					<dim>1</dim>
					<dim>3</dim>
					<dim>3</dim>
				</port>
			</output>
		</layer>
		<layer id="317" name="554" type="Const" version="opset1">
			<data element_type="i64" shape="" offset="9302924" size="8"/>
			<rt_info>
				<attribute name="fused_names" version="0" value="554"/>
			</rt_info>
			<output>
				<port id="0" precision="I64" names="554"/>
			</output>
		</layer>
		<layer id="318" name="Constant_1857" type="Const" version="opset1">
			<data element_type="i64" shape="" offset="100616" size="8"/>
			<rt_info>
				<attribute name="fused_names" version="0" value="Constant_1857"/>
			</rt_info>
			<output>
				<port id="0" precision="I64"/>
			</output>
		</layer>
		<layer id="319" name="555" type="Gather" version="opset8">
			<data batch_dims="0"/>
			<rt_info>
				<attribute name="fused_names" version="0" value="555"/>
			</rt_info>
			<input>
				<port id="0" precision="FP32">
					<dim>1</dim>
					<dim>2</dim>
					<dim>3</dim>
					<dim>3</dim>
				</port>
				<port id="1" precision="I64"/>
				<port id="2" precision="I64"/>
			</input>
			<output>
				<port id="3" precision="FP32" names="555">
					<dim>1</dim>
					<dim>3</dim>
					<dim>3</dim>
				</port>
			</output>
		</layer>
		<layer id="320" name="Constant_1595" type="Const" version="opset1">
			<data element_type="f32" shape="1" offset="100692" size="4"/>
			<rt_info>
				<attribute name="fused_names" version="0" value="Constant_1595"/>
			</rt_info>
			<output>
				<port id="0" precision="FP32">
					<dim>1</dim>
				</port>
			</output>
		</layer>
		<layer id="321" name="Constant_1594" type="Const" version="opset1">
			<data element_type="f32" shape="1" offset="100776" size="4"/>
			<rt_info>
				<attribute name="fused_names" version="0" value="Constant_1594"/>
			</rt_info>
			<output>
				<port id="0" precision="FP32">
					<dim>1</dim>
				</port>
			</output>
		</layer>
		<layer id="322" name="536" type="Const" version="opset1">
			<data element_type="f32" shape="3, 3" offset="11725876" size="36"/>
			<output>
				<port id="0" precision="FP32" names="536">
					<dim>3</dim>
					<dim>3</dim>
				</port>
			</output>
		</layer>
		<layer id="323" name="ShapeOf_1577" type="ShapeOf" version="opset3">
			<data output_type="i64"/>
			<rt_info>
				<attribute name="fused_names" version="0" value="536, Constant_1585, ShapeOf_1577, Subtract_1587"/>
			</rt_info>
			<input>
				<port id="0" precision="FP32">
					<dim>3</dim>
					<dim>3</dim>
				</port>
			</input>
			<output>
				<port id="1" precision="I64">
					<dim>2</dim>
				</port>
			</output>
		</layer>
		<layer id="324" name="Constant_1586" type="Const" version="opset1">
			<data element_type="i64" shape="1" offset="9302924" size="8"/>
			<rt_info>
				<attribute name="fused_names" version="0" value="Constant_1586"/>
			</rt_info>
			<output>
				<port id="0" precision="I64">
					<dim>1</dim>
				</port>
			</output>
		</layer>
		<layer id="325" name="ReduceMin_1588" type="ReduceMin" version="opset1">
			<data keep_dims="true"/>
			<rt_info>
				<attribute name="fused_names" version="0" value="Constant_1586, ReduceMin_1588"/>
			</rt_info>
			<input>
				<port id="0" precision="I64">
					<dim>2</dim>
				</port>
				<port id="1" precision="I64">
					<dim>1</dim>
				</port>
			</input>
			<output>
				<port id="2" precision="I64">
					<dim>1</dim>
				</port>
			</output>
		</layer>
		<layer id="326" name="Maximum_1589" type="Maximum" version="opset1">
			<data auto_broadcast="numpy"/>
			<rt_info>
				<attribute name="fused_names" version="0" value="Constant_1586, Maximum_1589"/>
			</rt_info>
			<input>
				<port id="0" precision="I64">
					<dim>1</dim>
				</port>
				<port id="1" precision="I64">
					<dim>1</dim>
				</port>
			</input>
			<output>
				<port id="2" precision="I64">
					<dim>1</dim>
				</port>
			</output>
		</layer>
		<layer id="327" name="Tile_1596" type="Tile" version="opset1">
			<rt_info>
				<attribute name="fused_names" version="0" value="Tile_1596"/>
			</rt_info>
			<input>
				<port id="0" precision="FP32">
					<dim>1</dim>
				</port>
				<port id="1" precision="I64">
					<dim>1</dim>
				</port>
			</input>
			<output>
				<port id="2" precision="FP32">
					<dim>3</dim>
				</port>
			</output>
		</layer>
		<layer id="328" name="Concat_1619" type="Concat" version="opset1">
			<data axis="0"/>
			<rt_info>
				<attribute name="fused_names" version="0" value="Concat_1619"/>
			</rt_info>
			<input>
				<port id="0" precision="FP32">
					<dim>1</dim>
				</port>
				<port id="1" precision="FP32">
					<dim>3</dim>
				</port>
			</input>
			<output>
				<port id="2" precision="FP32">
					<dim>4</dim>
				</port>
			</output>
		</layer>
		<layer id="329" name="Constant_1620" type="Const" version="opset1">
			<data element_type="i64" shape="1" offset="100616" size="8"/>
			<rt_info>
				<attribute name="fused_names" version="0" value="Constant_1620"/>
			</rt_info>
			<output>
				<port id="0" precision="I64">
					<dim>1</dim>
				</port>
			</output>
		</layer>
		<layer id="330" name="Subtract_1621" type="Subtract" version="opset1">
			<data auto_broadcast="numpy"/>
			<rt_info>
				<attribute name="fused_names" version="0" value="Constant_1620, Subtract_1621"/>
			</rt_info>
			<input>
				<port id="0" precision="I64">
					<dim>1</dim>
				</port>
				<port id="1" precision="I64">
					<dim>1</dim>
				</port>
			</input>
			<output>
				<port id="2" precision="I64">
					<dim>1</dim>
				</port>
			</output>
		</layer>
		<layer id="331" name="Tile_1622" type="Tile" version="opset1">
			<rt_info>
				<attribute name="fused_names" version="0" value="Tile_1622"/>
			</rt_info>
			<input>
				<port id="0" precision="FP32">
					<dim>4</dim>
				</port>
				<port id="1" precision="I64">
					<dim>1</dim>
				</port>
			</input>
			<output>
				<port id="2" precision="FP32">
					<dim>8</dim>
				</port>
			</output>
		</layer>
		<layer id="332" name="Concat_1651" type="Concat" version="opset1">
			<data axis="0"/>
			<rt_info>
				<attribute name="fused_names" version="0" value="Concat_1651"/>
			</rt_info>
			<input>
				<port id="0" precision="FP32">
					<dim>8</dim>
				</port>
				<port id="1" precision="FP32">
					<dim>1</dim>
				</port>
			</input>
			<output>
				<port id="2" precision="FP32">
					<dim>9</dim>
				</port>
			</output>
		</layer>
		<layer id="333" name="Concat_1652" type="Concat" version="opset1">
			<data axis="0"/>
			<rt_info>
				<attribute name="fused_names" version="0" value="Concat_1652"/>
			</rt_info>
			<input>
				<port id="0" precision="I64">
					<dim>1</dim>
				</port>
				<port id="1" precision="I64">
					<dim>1</dim>
				</port>
			</input>
			<output>
				<port id="2" precision="I64">
					<dim>2</dim>
				</port>
			</output>
		</layer>
		<layer id="334" name="Reshape_1653" type="Reshape" version="opset1">
			<data special_zero="false"/>
			<rt_info>
				<attribute name="fused_names" version="0" value="537, Concat_1701, Constant_1583, Constant_1584, Reshape_1653"/>
			</rt_info>
			<input>
				<port id="0" precision="FP32">
					<dim>9</dim>
				</port>
				<port id="1" precision="I64">
					<dim>2</dim>
				</port>
			</input>
			<output>
				<port id="2" precision="FP32" names="537">
					<dim>3</dim>
					<dim>3</dim>
				</port>
			</output>
		</layer>
		<layer id="335" name="Constant_1803" type="Const" version="opset1">
			<data element_type="i64" shape="1" offset="9302924" size="8"/>
			<rt_info>
				<attribute name="fused_names" version="0" value="Constant_1803"/>
			</rt_info>
			<output>
				<port id="0" precision="I64">
					<dim>1</dim>
				</port>
			</output>
		</layer>
		<layer id="336" name="538" type="Unsqueeze" version="opset1">
			<rt_info>
				<attribute name="fused_names" version="0" value="538"/>
			</rt_info>
			<input>
				<port id="0" precision="FP32">
					<dim>3</dim>
					<dim>3</dim>
				</port>
				<port id="1" precision="I64">
					<dim>1</dim>
				</port>
			</input>
			<output>
				<port id="2" precision="FP32" names="538">
					<dim>1</dim>
					<dim>3</dim>
					<dim>3</dim>
				</port>
			</output>
		</layer>
		<layer id="337" name="552" type="Const" version="opset1">
			<data element_type="i64" shape="3" offset="100644" size="24"/>
			<output>
				<port id="0" precision="I64" names="552">
					<dim>3</dim>
				</port>
			</output>
		</layer>
		<layer id="338" name="553" type="Broadcast" version="opset3">
			<data mode="bidirectional"/>
			<rt_info>
				<attribute name="fused_names" version="0" value="552, 553, 808"/>
			</rt_info>
			<input>
				<port id="0" precision="FP32">
					<dim>1</dim>
					<dim>3</dim>
					<dim>3</dim>
				</port>
				<port id="1" precision="I64">
					<dim>3</dim>
				</port>
			</input>
			<output>
				<port id="2" precision="FP32" names="553">
					<dim>1</dim>
					<dim>3</dim>
					<dim>3</dim>
				</port>
			</output>
		</layer>
		<layer id="339" name="556" type="MatMul" version="opset1">
			<data transpose_a="false" transpose_b="false"/>
			<rt_info>
				<attribute name="fused_names" version="0" value="556"/>
			</rt_info>
			<input>
				<port id="0" precision="FP32">
					<dim>1</dim>
					<dim>3</dim>
					<dim>3</dim>
				</port>
				<port id="1" precision="FP32">
					<dim>1</dim>
					<dim>3</dim>
					<dim>3</dim>
				</port>
			</input>
			<output>
				<port id="2" precision="FP32" names="556">
					<dim>1</dim>
					<dim>3</dim>
					<dim>3</dim>
				</port>
			</output>
		</layer>
		<layer id="340" name="559" type="MatMul" version="opset1">
			<data transpose_a="false" transpose_b="false"/>
			<rt_info>
				<attribute name="fused_names" version="0" value="559"/>
			</rt_info>
			<input>
				<port id="0" precision="FP32">
					<dim>1</dim>
					<dim>3</dim>
					<dim>3</dim>
				</port>
				<port id="1" precision="FP32">
					<dim>1</dim>
					<dim>3</dim>
					<dim>3</dim>
				</port>
			</input>
			<output>
				<port id="2" precision="FP32" names="559">
					<dim>1</dim>
					<dim>3</dim>
					<dim>3</dim>
				</port>
			</output>
		</layer>
		<layer id="341" name="580" type="Const" version="opset1">
			<data element_type="i64" shape="" offset="9303020" size="8"/>
			<rt_info>
				<attribute name="fused_names" version="0" value="580"/>
			</rt_info>
			<output>
				<port id="0" precision="I64" names="580"/>
			</output>
		</layer>
		<layer id="342" name="Constant_1893" type="Const" version="opset1">
			<data element_type="i64" shape="" offset="100616" size="8"/>
			<rt_info>
				<attribute name="fused_names" version="0" value="Constant_1893"/>
			</rt_info>
			<output>
				<port id="0" precision="I64"/>
			</output>
		</layer>
		<layer id="343" name="581" type="Gather" version="opset8">
			<data batch_dims="0"/>
			<rt_info>
				<attribute name="fused_names" version="0" value="581"/>
			</rt_info>
			<input>
				<port id="0" precision="FP32">
					<dim>1</dim>
					<dim>3</dim>
					<dim>3</dim>
				</port>
				<port id="1" precision="I64"/>
				<port id="2" precision="I64"/>
			</input>
			<output>
				<port id="3" precision="FP32" names="581">
					<dim>1</dim>
					<dim>3</dim>
				</port>
			</output>
		</layer>
		<layer id="344" name="582" type="Const" version="opset1">
			<data element_type="i64" shape="" offset="9302924" size="8"/>
			<rt_info>
				<attribute name="fused_names" version="0" value="582"/>
			</rt_info>
			<output>
				<port id="0" precision="I64" names="582"/>
			</output>
		</layer>
		<layer id="345" name="Constant_1896" type="Const" version="opset1">
			<data element_type="i64" shape="" offset="100616" size="8"/>
			<rt_info>
				<attribute name="fused_names" version="0" value="Constant_1896"/>
			</rt_info>
			<output>
				<port id="0" precision="I64"/>
			</output>
		</layer>
		<layer id="346" name="583" type="Gather" version="opset8">
			<data batch_dims="0"/>
			<rt_info>
				<attribute name="fused_names" version="0" value="583"/>
			</rt_info>
			<input>
				<port id="0" precision="FP32">
					<dim>1</dim>
					<dim>3</dim>
				</port>
				<port id="1" precision="I64"/>
				<port id="2" precision="I64"/>
			</input>
			<output>
				<port id="3" precision="FP32" names="583">
					<dim>1</dim>
				</port>
			</output>
		</layer>
		<layer id="347" name="584" type="Negative" version="opset1">
			<rt_info>
				<attribute name="fused_names" version="0" value="584"/>
			</rt_info>
			<input>
				<port id="0" precision="FP32">
					<dim>1</dim>
				</port>
			</input>
			<output>
				<port id="1" precision="FP32" names="584">
					<dim>1</dim>
				</port>
			</output>
		</layer>
		<layer id="348" name="560" type="Const" version="opset1">
			<data element_type="i64" shape="" offset="9302924" size="8"/>
			<rt_info>
				<attribute name="fused_names" version="0" value="560"/>
			</rt_info>
			<output>
				<port id="0" precision="I64" names="560"/>
			</output>
		</layer>
		<layer id="349" name="Constant_1865" type="Const" version="opset1">
			<data element_type="i64" shape="" offset="100616" size="8"/>
			<rt_info>
				<attribute name="fused_names" version="0" value="Constant_1865"/>
			</rt_info>
			<output>
				<port id="0" precision="I64"/>
			</output>
		</layer>
		<layer id="350" name="561" type="Gather" version="opset8">
			<data batch_dims="0"/>
			<rt_info>
				<attribute name="fused_names" version="0" value="561"/>
			</rt_info>
			<input>
				<port id="0" precision="FP32">
					<dim>1</dim>
					<dim>3</dim>
					<dim>3</dim>
				</port>
				<port id="1" precision="I64"/>
				<port id="2" precision="I64"/>
			</input>
			<output>
				<port id="3" precision="FP32" names="561">
					<dim>1</dim>
					<dim>3</dim>
				</port>
			</output>
		</layer>
		<layer id="351" name="562" type="Const" version="opset1">
			<data element_type="i64" shape="" offset="9302924" size="8"/>
			<rt_info>
				<attribute name="fused_names" version="0" value="562"/>
			</rt_info>
			<output>
				<port id="0" precision="I64" names="562"/>
			</output>
		</layer>
		<layer id="352" name="Constant_1868" type="Const" version="opset1">
			<data element_type="i64" shape="" offset="100616" size="8"/>
			<rt_info>
				<attribute name="fused_names" version="0" value="Constant_1868"/>
			</rt_info>
			<output>
				<port id="0" precision="I64"/>
			</output>
		</layer>
		<layer id="353" name="563" type="Gather" version="opset8">
			<data batch_dims="0"/>
			<rt_info>
				<attribute name="fused_names" version="0" value="563"/>
			</rt_info>
			<input>
				<port id="0" precision="FP32">
					<dim>1</dim>
					<dim>3</dim>
				</port>
				<port id="1" precision="I64"/>
				<port id="2" precision="I64"/>
			</input>
			<output>
				<port id="3" precision="FP32" names="563">
					<dim>1</dim>
				</port>
			</output>
		</layer>
		<layer id="354" name="564" type="Const" version="opset1">
			<data element_type="i64" shape="" offset="9302924" size="8"/>
			<rt_info>
				<attribute name="fused_names" version="0" value="564"/>
			</rt_info>
			<output>
				<port id="0" precision="I64" names="564"/>
			</output>
		</layer>
		<layer id="355" name="Constant_1871" type="Const" version="opset1">
			<data element_type="i64" shape="" offset="100616" size="8"/>
			<rt_info>
				<attribute name="fused_names" version="0" value="Constant_1871"/>
			</rt_info>
			<output>
				<port id="0" precision="I64"/>
			</output>
		</layer>
		<layer id="356" name="565" type="Gather" version="opset8">
			<data batch_dims="0"/>
			<rt_info>
				<attribute name="fused_names" version="0" value="565"/>
			</rt_info>
			<input>
				<port id="0" precision="FP32">
					<dim>1</dim>
					<dim>3</dim>
					<dim>3</dim>
				</port>
				<port id="1" precision="I64"/>
				<port id="2" precision="I64"/>
			</input>
			<output>
				<port id="3" precision="FP32" names="565">
					<dim>1</dim>
					<dim>3</dim>
				</port>
			</output>
		</layer>
		<layer id="357" name="566" type="Const" version="opset1">
			<data element_type="i64" shape="" offset="9302924" size="8"/>
			<rt_info>
				<attribute name="fused_names" version="0" value="566"/>
			</rt_info>
			<output>
				<port id="0" precision="I64" names="566"/>
			</output>
		</layer>
		<layer id="358" name="Constant_1874" type="Const" version="opset1">
…
		<layer id="394" name="609" type="Subtract" version="opset1">
			<data auto_broadcast="numpy"/>
			<rt_info>
				<attribute name="fused_names" version="0" value="609"/>
			</rt_info>
			<input>
				<port id="0" precision="I64">
					<dim>1</dim>
				</port>
				<port id="1" precision="I64">
					<dim>1</dim>
				</port>
			</input>
			<output>
				<port id="2" precision="I64" names="609">
					<dim>1</dim>
				</port>
			</output>
		</layer>
		<layer id="395" name="Constant_9112" type="Const" version="opset1">
			<data element_type="i64" shape="1" offset="11725936" size="8"/>
			<output>
				<port id="0" precision="I64">
					<dim>1</dim>
				</port>
			</output>
		</layer>
		<layer id="396" name="611" type="Subtract" version="opset1">
			<data auto_broadcast="numpy"/>
			<rt_info>
				<attribute name="fused_names" version="0" value="611"/>
			</rt_info>
			<input>
				<port id="0" precision="I64">
					<dim>1</dim>
				</port>
				<port id="1" precision="I64">
					<dim>1</dim>
				</port>
			</input>
			<output>
				<port id="2" precision="I64" names="611">
					<dim>1</dim>
				</port>
			</output>
		</layer>
		<layer id="397" name="612" type="Multiply" version="opset1">
			<data auto_broadcast="numpy"/>
			<rt_info>
				<attribute name="fused_names" version="0" value="612"/>
			</rt_info>
			<input>
				<port id="0" precision="I64">
					<dim>1</dim>
				</port>
				<port id="1" precision="I64">
					<dim>1</dim>
				</port>
			</input>
			<output>
				<port id="2" precision="I64" names="612">
					<dim>1</dim>
				</port>
			</output>
		</layer>
		<layer id="398" name="613" type="Add" version="opset1">
			<data auto_broadcast="numpy"/>
			<rt_info>
				<attribute name="fused_names" version="0" value="613"/>
			</rt_info>
			<input>
				<port id="0" precision="I64">
					<dim>1</dim>
				</port>
				<port id="1" precision="I64">
					<dim>1</dim>
				</port>
			</input>
			<output>
				<port id="2" precision="I64" names="613">
					<dim>1</dim>
				</port>
			</output>
		</layer>
		<layer id="399" name="614" type="Multiply" version="opset1">
			<data auto_broadcast="numpy"/>
			<rt_info>
				<attribute name="fused_names" version="0" value="614"/>
			</rt_info>
			<input>
				<port id="0" precision="I64">
					<dim>1</dim>
				</port>
				<port id="1" precision="I64">
					<dim>1</dim>
				</port>
			</input>
			<output>
				<port id="2" precision="I64" names="614">
					<dim>1</dim>
				</port>
			</output>
		</layer>
		<layer id="400" name="Constant_9113" type="Const" version="opset1">
			<data element_type="i64" shape="1" offset="100616" size="8"/>
			<output>
				<port id="0" precision="I64">
					<dim>1</dim>
				</port>
			</output>
		</layer>
		<layer id="401" name="616" type="Subtract" version="opset1">
			<data auto_broadcast="numpy"/>
			<rt_info>
				<attribute name="fused_names" version="0" value="616"/>
			</rt_info>
			<input>
				<port id="0" precision="I64">
					<dim>1</dim>
				</port>
				<port id="1" precision="I64">
					<dim>1</dim>
				</port>
			</input>
			<output>
				<port id="2" precision="I64" names="616">
					<dim>1</dim>
				</port>
			</output>
		</layer>
		<layer id="402" name="617" type="Multiply" version="opset1">
			<data auto_broadcast="numpy"/>
			<rt_info>
				<attribute name="fused_names" version="0" value="617"/>
			</rt_info>
			<input>
				<port id="0" precision="I64">
					<dim>1</dim>
				</port>
				<port id="1" precision="I64">
					<dim>1</dim>
				</port>
			</input>
			<output>
				<port id="2" precision="I64" names="617">
					<dim>1</dim>
				</port>
			</output>
		</layer>
		<layer id="403" name="618" type="Add" version="opset1">
			<data auto_broadcast="numpy"/>
			<rt_info>
				<attribute name="fused_names" version="0" value="618"/>
			</rt_info>
			<input>
				<port id="0" precision="I64">
					<dim>1</dim>
				</port>
				<port id="1" precision="I64">
					<dim>1</dim>
				</port>
			</input>
			<output>
				<port id="2" precision="I64" names="618">
					<dim>1</dim>
				</port>
			</output>
		</layer>
		<layer id="404" name="Constant_1932" type="Const" version="opset1">
			<data element_type="i64" shape="" offset="9302924" size="8"/>
			<rt_info>
				<attribute name="fused_names" version="0" value="Constant_1932"/>
			</rt_info>
			<output>
				<port id="0" precision="I64"/>
			</output>
		</layer>
		<layer id="405" name="619" type="Gather" version="opset8">
			<data batch_dims="0"/>
			<rt_info>
				<attribute name="fused_names" version="0" value="619"/>
			</rt_info>
			<input>
				<port id="0" precision="I64">
					<dim>79</dim>
					<dim>17</dim>
				</port>
				<port id="1" precision="I64">
					<dim>1</dim>
				</port>
				<port id="2" precision="I64"/>
			</input>
			<output>
				<port id="3" precision="I64" names="619">
					<dim>1</dim>
					<dim>17</dim>
				</port>
			</output>
		</layer>
		<layer id="406" name="462" type="Const" version="opset1">
			<data element_type="i64" shape="1, 51" offset="11725944" size="408"/>
			<output>
				<port id="0" precision="I64" names="462">
					<dim>1</dim>
					<dim>51</dim>
				</port>
			</output>
		</layer>
		<layer id="407" name="621" type="Concat" version="opset1">
			<data axis="1"/>
			<rt_info>
				<attribute name="fused_names" version="0" value="461, 462, 621, 780"/>
			</rt_info>
			<input>
				<port id="0" precision="I64">
					<dim>1</dim>
					<dim>17</dim>
				</port>
				<port id="1" precision="I64">
					<dim>1</dim>
					<dim>51</dim>
				</port>
			</input>
			<output>
				<port id="2" precision="I64" names="621">
					<dim>1</dim>
					<dim>68</dim>
				</port>
			</output>
		</layer>
		<layer id="408" name="624" type="Const" version="opset1">
			<data element_type="i64" shape="1" offset="9302916" size="8"/>
			<rt_info>
				<attribute name="fused_names" version="0" value="624"/>
			</rt_info>
			<output>
				<port id="0" precision="I64" names="624">
					<dim>1</dim>
				</port>
			</output>
		</layer>
		<layer id="409" name="625" type="Reshape" version="opset1">
			<data special_zero="true"/>
			<rt_info>
				<attribute name="fused_names" version="0" value="625"/>
			</rt_info>
			<input>
				<port id="0" precision="I64">
					<dim>1</dim>
					<dim>68</dim>
				</port>
				<port id="1" precision="I64">
					<dim>1</dim>
				</port>
			</input>
			<output>
				<port id="2" precision="I64" names="625">
					<dim>68</dim>
				</port>
			</output>
		</layer>
		<layer id="410" name="Constant_1945" type="Const" version="opset1">
			<data element_type="i64" shape="" offset="9302924" size="8"/>
			<rt_info>
				<attribute name="fused_names" version="0" value="Constant_1945"/>
			</rt_info>
			<output>
				<port id="0" precision="I64"/>
			</output>
		</layer>
		<layer id="411" name="626" type="Gather" version="opset8">
			<data batch_dims="0"/>
			<rt_info>
				<attribute name="fused_names" version="0" value="626"/>
			</rt_info>
			<input>
				<port id="0" precision="I64">
					<dim>9976</dim>
					<dim>3</dim>
				</port>
				<port id="1" precision="I64">
					<dim>68</dim>
				</port>
				<port id="2" precision="I64"/>
			</input>
			<output>
				<port id="3" precision="I64" names="626">
					<dim>68</dim>
					<dim>3</dim>
				</port>
			</output>
		</layer>
		<layer id="412" name="815" type="Const" version="opset1">
			<data element_type="i64" shape="3" offset="11473172" size="24"/>
			<rt_info>
				<attribute name="fused_names" version="0" value="815"/>
			</rt_info>
			<output>
				<port id="0" precision="I64" names="815">
					<dim>3</dim>
				</port>
			</output>
		</layer>
		<layer id="413" name="633" type="Reshape" version="opset1">
			<data special_zero="true"/>
			<rt_info>
				<attribute name="fused_names" version="0" value="633, 635"/>
			</rt_info>
			<input>
				<port id="0" precision="I64">
					<dim>68</dim>
					<dim>3</dim>
				</port>
				<port id="1" precision="I64">
					<dim>3</dim>
				</port>
			</input>
			<output>
				<port id="2" precision="I64" names="633,635">
					<dim>1</dim>
					<dim>68</dim>
					<dim>3</dim>
				</port>
			</output>
		</layer>
		<layer id="414" name="Constant_1962" type="Const" version="opset1">
			<data element_type="i64" shape="" offset="9302924" size="8"/>
			<rt_info>
				<attribute name="fused_names" version="0" value="Constant_1962"/>
			</rt_info>
			<output>
				<port id="0" precision="I64"/>
			</output>
		</layer>
		<layer id="415" name="638" type="Gather" version="opset8">
			<data batch_dims="0"/>
			<rt_info>
				<attribute name="fused_names" version="0" value="638"/>
			</rt_info>
			<input>
				<port id="0" precision="FP32">
					<dim>5023</dim>
					<dim>3</dim>
				</port>
				<port id="1" precision="I64">
					<dim>1</dim>
					<dim>68</dim>
					<dim>3</dim>
				</port>
				<port id="2" precision="I64"/>
			</input>
			<output>
				<port id="3" precision="FP32" names="638">
					<dim>1</dim>
					<dim>68</dim>
					<dim>3</dim>
					<dim>3</dim>
				</port>
			</output>
		</layer>
		<layer id="416" name="820" type="Const" version="opset1">
			<data element_type="i64" shape="4" offset="100696" size="32"/>
			<rt_info>
				<attribute name="fused_names" version="0" value="820"/>
			</rt_info>
			<output>
				<port id="0" precision="I64" names="820">
					<dim>4</dim>
				</port>
			</output>
		</layer>
		<layer id="417" name="647" type="Reshape" version="opset1">
			<data special_zero="true"/>
			<rt_info>
				<attribute name="fused_names" version="0" value="647"/>
			</rt_info>
			<input>
				<port id="0" precision="FP32">
					<dim>1</dim>
					<dim>68</dim>
					<dim>3</dim>
					<dim>3</dim>
				</port>
				<port id="1" precision="I64">
					<dim>4</dim>
				</port>
			</input>
			<output>
				<port id="2" precision="FP32" names="647">
					<dim>1</dim>
					<dim>68</dim>
					<dim>3</dim>
					<dim>3</dim>
				</port>
			</output>
		</layer>
		<layer id="418" name="dynamic_lmk_bary_coords" type="Const" version="opset1">
			<data element_type="f32" shape="79, 17, 3" offset="11726352" size="16116"/>
			<rt_info>
				<attribute name="fused_names" version="0" value="dynamic_lmk_bary_coords"/>
			</rt_info>
			<output>
				<port id="0" precision="FP32" names="dynamic_lmk_bary_coords">
					<dim>79</dim>
					<dim>17</dim>
					<dim>3</dim>
				</port>
			</output>
		</layer>
		<layer id="419" name="Constant_1934" type="Const" version="opset1">
			<data element_type="i64" shape="" offset="9302924" size="8"/>
			<rt_info>
				<attribute name="fused_names" version="0" value="Constant_1934"/>
			</rt_info>
			<output>
				<port id="0" precision="I64"/>
			</output>
		</layer>
		<layer id="420" name="620" type="Gather" version="opset8">
			<data batch_dims="0"/>
			<rt_info>
				<attribute name="fused_names" version="0" value="620"/>
			</rt_info>
			<input>
				<port id="0" precision="FP32">
					<dim>79</dim>
					<dim>17</dim>
					<dim>3</dim>
				</port>
				<port id="1" precision="I64">
					<dim>1</dim>
				</port>
				<port id="2" precision="I64"/>
			</input>
			<output>
				<port id="3" precision="FP32" names="620">
					<dim>1</dim>
					<dim>17</dim>
					<dim>3</dim>
				</port>
			</output>
		</layer>
		<layer id="421" name="478" type="Const" version="opset1">
			<data element_type="f32" shape="1, 51, 3" offset="11742468" size="612"/>
			<output>
				<port id="0" precision="FP32" names="478">
					<dim>1</dim>
					<dim>51</dim>
					<dim>3</dim>
				</port>
			</output>
		</layer>
		<layer id="422" name="622" type="Concat" version="opset1">
			<data axis="1"/>
			<rt_info>
				<attribute name="fused_names" version="0" value="477, 478, 622, 787"/>
			</rt_info>
			<input>
				<port id="0" precision="FP32">
					<dim>1</dim>
					<dim>17</dim>
					<dim>3</dim>
				</port>
				<port id="1" precision="FP32">
					<dim>1</dim>
					<dim>51</dim>
					<dim>3</dim>
				</port>
			</input>
			<output>
				<port id="2" precision="FP32" names="622">
					<dim>1</dim>
					<dim>68</dim>
					<dim>3</dim>
				</port>
			</output>
		</layer>
		<layer id="423" name="648" type="Einsum" version="opset7">
			<data equation="blfi,blf-&gt;bli"/>
			<rt_info>
				<attribute name="fused_names" version="0" value="648"/>
			</rt_info>
			<input>
				<port id="0" precision="FP32">
					<dim>1</dim>
					<dim>68</dim>
					<dim>3</dim>
					<dim>3</dim>
				</port>
				<port id="1" precision="FP32">
					<dim>1</dim>
					<dim>68</dim>
					<dim>3</dim>
				</port>
			</input>
			<output>
				<port id="2" precision="FP32" names="648">
					<dim>1</dim>
					<dim>68</dim>
					<dim>3</dim>
				</port>
			</output>
		</layer>
		<layer id="425" name="448/sink_port_0" type="Result" version="opset1">
			<rt_info>
				<attribute name="fused_names" version="0" value="448/sink_port_0"/>
			</rt_info>
			<input>
				<port id="0" precision="FP32">
					<dim>1</dim>
					<dim>5023</dim>
					<dim>3</dim>
				</port>
			</input>
		</layer>
		<layer id="424" name="648/sink_port_0" type="Result" version="opset1">
			<rt_info>
				<attribute name="fused_names" version="0" value="648/sink_port_0"/>
			</rt_info>
			<input>
				<port id="0" precision="FP32">
					<dim>1</dim>
					<dim>68</dim>
					<dim>3</dim>
				</port>
			</input>
		</layer>
		<layer id="269" name="700/sink_port_0" type="Result" version="opset1">
			<rt_info>
				<attribute name="fused_names" version="0" value="700/sink_port_0"/>
			</rt_info>
			<input>
				<port id="0" precision="FP32">
					<dim>1</dim>
					<dim>68</dim>
					<dim>3</dim>
				</port>
			</input>
		</layer>
	</layers>
	<edges>
		<edge from-layer="0" from-port="0" to-layer="8" to-port="0"/>
		<edge from-layer="0" from-port="0" to-layer="13" to-port="0"/>
		<edge from-layer="1" from-port="0" to-layer="57" to-port="1"/>
		<edge from-layer="2" from-port="0" to-layer="57" to-port="0"/>
		<edge from-layer="3" from-port="0" to-layer="224" to-port="0"/>
		<edge from-layer="4" from-port="0" to-layer="39" to-port="0"/>
		<edge from-layer="5" from-port="0" to-layer="8" to-port="1"/>
		<edge from-layer="6" from-port="0" to-layer="8" to-port="2"/>
		<edge from-layer="7" from-port="0" to-layer="8" to-port="3"/>
		<edge from-layer="8" from-port="4" to-layer="15" to-port="0"/>
		<edge from-layer="9" from-port="0" to-layer="15" to-port="1"/>
		<edge from-layer="10" from-port="0" to-layer="13" to-port="1"/>
		<edge from-layer="11" from-port="0" to-layer="13" to-port="2"/>
		<edge from-layer="12" from-port="0" to-layer="13" to-port="3"/>
		<edge from-layer="13" from-port="4" to-layer="15" to-port="2"/>
		<edge from-layer="14" from-port="0" to-layer="15" to-port="3"/>
		<edge from-layer="15" from-port="4" to-layer="17" to-port="0"/>
		<edge from-layer="15" from-port="4" to-layer="276" to-port="0"/>
		<edge from-layer="16" from-port="0" to-layer="17" to-port="1"/>
		<edge from-layer="17" from-port="2" to-layer="19" to-port="0"/>
		<edge from-layer="17" from-port="2" to-layer="28" to-port="0"/>
		<edge from-layer="18" from-port="0" to-layer="19" to-port="1"/>
		<edge from-layer="19" from-port="2" to-layer="20" to-port="0"/>
		<edge from-layer="19" from-port="2" to-layer="20" to-port="1"/>
		<edge from-layer="20" from-port="2" to-layer="22" to-port="0"/>
		<edge from-layer="21" from-port="0" to-layer="22" to-port="1"/>
		<edge from-layer="22" from-port="2" to-layer="23" to-port="0"/>
		<edge from-layer="23" from-port="1" to-layer="28" to-port="1"/>
		<edge from-layer="23" from-port="1" to-layer="41" to-port="0"/>
		<edge from-layer="23" from-port="1" to-layer="24" to-port="0"/>
		<edge from-layer="24" from-port="1" to-layer="26" to-port="0"/>
		<edge from-layer="25" from-port="0" to-layer="26" to-port="1"/>
		<edge from-layer="26" from-port="2" to-layer="38" to-port="0"/>
		<edge from-layer="27" from-port="0" to-layer="35" to-port="4"/>
		<edge from-layer="27" from-port="0" to-layer="35" to-port="8"/>
		<edge from-layer="27" from-port="0" to-layer="35" to-port="0"/>
		<edge from-layer="28" from-port="2" to-layer="31" to-port="0"/>
		<edge from-layer="29" from-port="0" to-layer="31" to-port="1"/>
		<edge from-layer="30" from-port="0" to-layer="31" to-port="2"/>
		<edge from-layer="31" from-port="3" to-layer="35" to-port="7"/>
		<edge from-layer="31" from-port="4" to-layer="34" to-port="0"/>
		<edge from-layer="31" from-port="4" to-layer="35" to-port="2"/>
		<edge from-layer="31" from-port="5" to-layer="32" to-port="0"/>
		<edge from-layer="31" from-port="5" to-layer="35" to-port="3"/>
		<edge from-layer="31" from-port="3" to-layer="33" to-port="0"/>
		<edge from-layer="32" from-port="1" to-layer="35" to-port="1"/>
		<edge from-layer="33" from-port="1" to-layer="35" to-port="5"/>
		<edge from-layer="34" from-port="1" to-layer="35" to-port="6"/>
		<edge from-layer="35" from-port="9" to-layer="37" to-port="0"/>
		<edge from-layer="36" from-port="0" to-layer="37" to-port="1"/>
		<edge from-layer="37" from-port="2" to-layer="38" to-port="1"/>
		<edge from-layer="37" from-port="2" to-layer="45" to-port="1"/>
		<edge from-layer="37" from-port="2" to-layer="45" to-port="0"/>
		<edge from-layer="38" from-port="2" to-layer="39" to-port="1"/>
		<edge from-layer="39" from-port="2" to-layer="47" to-port="0"/>
		<edge from-layer="40" from-port="0" to-layer="44" to-port="0"/>
		<edge from-layer="41" from-port="1" to-layer="43" to-port="0"/>
		<edge from-layer="42" from-port="0" to-layer="43" to-port="1"/>
		<edge from-layer="43" from-port="2" to-layer="44" to-port="1"/>
		<edge from-layer="44" from-port="2" to-layer="46" to-port="0"/>
		<edge from-layer="45" from-port="2" to-layer="46" to-port="1"/>
		<edge from-layer="46" from-port="2" to-layer="47" to-port="1"/>
		<edge from-layer="47" from-port="2" to-layer="49" to-port="0"/>
		<edge from-layer="48" from-port="0" to-layer="49" to-port="1"/>
		<edge from-layer="49" from-port="2" to-layer="51" to-port="0"/>
		<edge from-layer="49" from-port="2" to-layer="230" to-port="0"/>
		<edge from-layer="50" from-port="0" to-layer="51" to-port="1"/>
		<edge from-layer="51" from-port="2" to-layer="55" to-port="0"/>
		<edge from-layer="52" from-port="0" to-layer="55" to-port="1"/>
		<edge from-layer="53" from-port="0" to-layer="55" to-port="2"/>
		<edge from-layer="54" from-port="0" to-layer="55" to-port="3"/>
		<edge from-layer="55" from-port="4" to-layer="173" to-port="0"/>
		<edge from-layer="56" from-port="0" to-layer="60" to-port="0"/>
		<edge from-layer="57" from-port="2" to-layer="59" to-port="0"/>
		<edge from-layer="58" from-port="0" to-layer="59" to-port="1"/>
		<edge from-layer="59" from-port="2" to-layer="60" to-port="1"/>
		<edge from-layer="60" from-port="2" to-layer="239" to-port="1"/>
		<edge from-layer="60" from-port="2" to-layer="62" to-port="0"/>
		<edge from-layer="61" from-port="0" to-layer="62" to-port="1"/>
		<edge from-layer="62" from-port="2" to-layer="64" to-port="0"/>
		<edge from-layer="63" from-port="0" to-layer="64" to-port="1"/>
		<edge from-layer="64" from-port="2" to-layer="66" to-port="0"/>
		<edge from-layer="64" from-port="2" to-layer="117" to-port="0"/>
		<edge from-layer="64" from-port="2" to-layer="107" to-port="0"/>
		<edge from-layer="64" from-port="2" to-layer="104" to-port="0"/>
		<edge from-layer="64" from-port="2" to-layer="215" to-port="0"/>
		<edge from-layer="65" from-port="0" to-layer="71" to-port="0"/>
		<edge from-layer="66" from-port="1" to-layer="69" to-port="0"/>
		<edge from-layer="66" from-port="1" to-layer="77" to-port="0"/>
		<edge from-layer="66" from-port="1" to-layer="114" to-port="0"/>
		<edge from-layer="66" from-port="1" to-layer="177" to-port="0"/>
		<edge from-layer="67" from-port="0" to-layer="69" to-port="1"/>
		<edge from-layer="68" from-port="0" to-layer="69" to-port="2"/>
		<edge from-layer="69" from-port="3" to-layer="71" to-port="1"/>
		<edge from-layer="70" from-port="0" to-layer="71" to-port="2"/>
		<edge from-layer="71" from-port="3" to-layer="73" to-port="0"/>
		<edge from-layer="72" from-port="0" to-layer="73" to-port="1"/>
		<edge from-layer="73" from-port="2" to-layer="84" to-port="0"/>
		<edge from-layer="73" from-port="2" to-layer="90" to-port="0"/>
		<edge from-layer="74" from-port="0" to-layer="79" to-port="0"/>
		<edge from-layer="75" from-port="0" to-layer="77" to-port="1"/>
		<edge from-layer="76" from-port="0" to-layer="77" to-port="2"/>
		<edge from-layer="77" from-port="3" to-layer="79" to-port="1"/>
		<edge from-layer="78" from-port="0" to-layer="79" to-port="2"/>
		<edge from-layer="79" from-port="3" to-layer="83" to-port="0"/>
		<edge from-layer="80" from-port="0" to-layer="83" to-port="1"/>
		<edge from-layer="81" from-port="0" to-layer="83" to-port="2"/>
		<edge from-layer="82" from-port="0" to-layer="83" to-port="3"/>
		<edge from-layer="83" from-port="4" to-layer="84" to-port="1"/>
		<edge from-layer="83" from-port="4" to-layer="97" to-port="0"/>
		<edge from-layer="84" from-port="2" to-layer="85" to-port="0"/>
		<edge from-layer="85" from-port="1" to-layer="94" to-port="0"/>
		<edge from-layer="85" from-port="1" to-layer="96" to-port="2"/>
		<edge from-layer="85" from-port="1" to-layer="89" to-port="2"/>
		<edge from-layer="85" from-port="1" to-layer="115" to-port="0"/>
		<edge from-layer="85" from-port="1" to-layer="87" to-port="0"/>
		<edge from-layer="86" from-port="0" to-layer="87" to-port="1"/>
		<edge from-layer="87" from-port="2" to-layer="89" to-port="0"/>
		<edge from-layer="88" from-port="0" to-layer="89" to-port="1"/>
		<edge from-layer="89" from-port="3" to-layer="90" to-port="1"/>
		<edge from-layer="90" from-port="2" to-layer="92" to-port="0"/>
		<edge from-layer="91" from-port="0" to-layer="92" to-port="1"/>
		<edge from-layer="92" from-port="2" to-layer="100" to-port="0"/>
		<edge from-layer="93" from-port="0" to-layer="94" to-port="1"/>
		<edge from-layer="94" from-port="2" to-layer="96" to-port="0"/>
		<edge from-layer="95" from-port="0" to-layer="96" to-port="1"/>
		<edge from-layer="96" from-port="3" to-layer="97" to-port="1"/>
		<edge from-layer="97" from-port="2" to-layer="99" to-port="0"/>
		<edge from-layer="98" from-port="0" to-layer="99" to-port="1"/>
		<edge from-layer="99" from-port="2" to-layer="100" to-port="1"/>
		<edge from-layer="100" from-port="2" to-layer="117" to-port="1"/>
		<edge from-layer="101" from-port="0" to-layer="104" to-port="1"/>
		<edge from-layer="102" from-port="0" to-layer="104" to-port="2"/>
		<edge from-layer="103" from-port="0" to-layer="104" to-port="3"/>
		<edge from-layer="104" from-port="4" to-layer="108" to-port="0"/>
		<edge from-layer="104" from-port="4" to-layer="109" to-port="0"/>
		<edge from-layer="105" from-port="0" to-layer="107" to-port="1"/>
		<edge from-layer="106" from-port="0" to-layer="107" to-port="2"/>
		<edge from-layer="107" from-port="3" to-layer="108" to-port="1"/>
		<edge from-layer="108" from-port="2" to-layer="159" to-port="0"/>
		<edge from-layer="108" from-port="2" to-layer="110" to-port="0"/>
		<edge from-layer="109" from-port="1" to-layer="110" to-port="1"/>
		<edge from-layer="110" from-port="2" to-layer="116" to-port="0"/>
		<edge from-layer="111" from-port="0" to-layer="114" to-port="1"/>
		<edge from-layer="112" from-port="0" to-layer="114" to-port="2"/>
		<edge from-layer="113" from-port="0" to-layer="114" to-port="3"/>
		<edge from-layer="114" from-port="4" to-layer="115" to-port="1"/>
		<edge from-layer="115" from-port="2" to-layer="116" to-port="1"/>
		<edge from-layer="116" from-port="2" to-layer="117" to-port="2"/>
		<edge from-layer="117" from-port="3" to-layer="119" to-port="0"/>
		<edge from-layer="117" from-port="3" to-layer="166" to-port="0"/>
		<edge from-layer="117" from-port="3" to-layer="157" to-port="0"/>
		<edge from-layer="118" from-port="0" to-layer="124" to-port="0"/>
		<edge from-layer="119" from-port="1" to-layer="122" to-port="0"/>
		<edge from-layer="119" from-port="1" to-layer="130" to-port="0"/>
		<edge from-layer="119" from-port="1" to-layer="163" to-port="0"/>
		<edge from-layer="120" from-port="0" to-layer="122" to-port="1"/>
		<edge from-layer="121" from-port="0" to-layer="122" to-port="2"/>
		<edge from-layer="122" from-port="3" to-layer="124" to-port="1"/>
		<edge from-layer="123" from-port="0" to-layer="124" to-port="2"/>
		<edge from-layer="124" from-port="3" to-layer="126" to-port="0"/>
		<edge from-layer="125" from-port="0" to-layer="126" to-port="1"/>
		<edge from-layer="126" from-port="2" to-layer="137" to-port="0"/>
		<edge from-layer="126" from-port="2" to-layer="143" to-port="0"/>
		<edge from-layer="127" from-port="0" to-layer="132" to-port="0"/>
		<edge from-layer="128" from-port="0" to-layer="130" to-port="1"/>
		<edge from-layer="129" from-port="0" to-layer="130" to-port="2"/>
		<edge from-layer="130" from-port="3" to-layer="132" to-port="1"/>
		<edge from-layer="131" from-port="0" to-layer="132" to-port="2"/>
		<edge from-layer="132" from-port="3" to-layer="136" to-port="0"/>
		<edge from-layer="133" from-port="0" to-layer="136" to-port="1"/>
		<edge from-layer="134" from-port="0" to-layer="136" to-port="2"/>
		<edge from-layer="135" from-port="0" to-layer="136" to-port="3"/>
		<edge from-layer="136" from-port="4" to-layer="150" to-port="0"/>
		<edge from-layer="136" from-port="4" to-layer="137" to-port="1"/>
		<edge from-layer="137" from-port="2" to-layer="138" to-port="0"/>
		<edge from-layer="138" from-port="1" to-layer="147" to-port="0"/>
		<edge from-layer="138" from-port="1" to-layer="140" to-port="0"/>
		<edge from-layer="138" from-port="1" to-layer="149" to-port="2"/>
		<edge from-layer="138" from-port="1" to-layer="164" to-port="0"/>
		<edge from-layer="138" from-port="1" to-layer="142" to-port="2"/>
		<edge from-layer="139" from-port="0" to-layer="140" to-port="1"/>
		<edge from-layer="140" from-port="2" to-layer="142" to-port="0"/>
		<edge from-layer="141" from-port="0" to-layer="142" to-port="1"/>
		<edge from-layer="142" from-port="3" to-layer="143" to-port="1"/>
		<edge from-layer="143" from-port="2" to-layer="145" to-port="0"/>
		<edge from-layer="144" from-port="0" to-layer="145" to-port="1"/>
		<edge from-layer="145" from-port="2" to-layer="153" to-port="0"/>
		<edge from-layer="146" from-port="0" to-layer="147" to-port="1"/>
		<edge from-layer="147" from-port="2" to-layer="149" to-port="0"/>
		<edge from-layer="148" from-port="0" to-layer="149" to-port="1"/>
		<edge from-layer="149" from-port="3" to-layer="150" to-port="1"/>
		<edge from-layer="150" from-port="2" to-layer="152" to-port="0"/>
		<edge from-layer="151" from-port="0" to-layer="152" to-port="1"/>
		<edge from-layer="152" from-port="2" to-layer="153" to-port="1"/>
		<edge from-layer="153" from-port="2" to-layer="166" to-port="1"/>
		<edge from-layer="154" from-port="0" to-layer="157" to-port="1"/>
		<edge from-layer="155" from-port="0" to-layer="157" to-port="2"/>
		<edge from-layer="156" from-port="0" to-layer="157" to-port="3"/>
		<edge from-layer="157" from-port="4" to-layer="158" to-port="0"/>
		<edge from-layer="158" from-port="1" to-layer="159" to-port="1"/>
		<edge from-layer="159" from-port="2" to-layer="165" to-port="0"/>
		<edge from-layer="160" from-port="0" to-layer="163" to-port="1"/>
		<edge from-layer="161" from-port="0" to-layer="163" to-port="2"/>
		<edge from-layer="162" from-port="0" to-layer="163" to-port="3"/>
		<edge from-layer="163" from-port="4" to-layer="164" to-port="1"/>
		<edge from-layer="164" from-port="2" to-layer="165" to-port="1"/>
		<edge from-layer="165" from-port="2" to-layer="166" to-port="2"/>
		<edge from-layer="166" from-port="3" to-layer="168" to-port="0"/>
		<edge from-layer="167" from-port="0" to-layer="168" to-port="1"/>
		<edge from-layer="168" from-port="2" to-layer="172" to-port="0"/>
		<edge from-layer="169" from-port="0" to-layer="172" to-port="1"/>
		<edge from-layer="170" from-port="0" to-layer="172" to-port="2"/>
		<edge from-layer="171" from-port="0" to-layer="172" to-port="3"/>
		<edge from-layer="172" from-port="4" to-layer="173" to-port="1"/>
		<edge from-layer="173" from-port="2" to-layer="181" to-port="0"/>
		<edge from-layer="174" from-port="0" to-layer="180" to-port="0"/>
		<edge from-layer="175" from-port="0" to-layer="177" to-port="1"/>
		<edge from-layer="176" from-port="0" to-layer="177" to-port="2"/>
		<edge from-layer="177" from-port="3" to-layer="180" to-port="1"/>
		<edge from-layer="178" from-port="0" to-layer="180" to-port="2"/>
		<edge from-layer="179" from-port="0" to-layer="180" to-port="3"/>
		<edge from-layer="180" from-port="4" to-layer="181" to-port="1"/>
		<edge from-layer="181" from-port="2" to-layer="184" to-port="0"/>
		<edge from-layer="181" from-port="2" to-layer="195" to-port="0"/>
		<edge from-layer="181" from-port="2" to-layer="189" to-port="0"/>
		<edge from-layer="181" from-port="2" to-layer="201" to-port="0"/>
		<edge from-layer="181" from-port="2" to-layer="207" to-port="0"/>
		<edge from-layer="182" from-port="0" to-layer="184" to-port="1"/>
		<edge from-layer="183" from-port="0" to-layer="184" to-port="2"/>
		<edge from-layer="184" from-port="3" to-layer="190" to-port="0"/>
		<edge from-layer="184" from-port="3" to-layer="186" to-port="0"/>
		<edge from-layer="185" from-port="0" to-layer="186" to-port="1"/>
		<edge from-layer="186" from-port="2" to-layer="211" to-port="0"/>
		<edge from-layer="187" from-port="0" to-layer="189" to-port="1"/>
		<edge from-layer="188" from-port="0" to-layer="189" to-port="2"/>
		<edge from-layer="189" from-port="3" to-layer="190" to-port="1"/>
		<edge from-layer="190" from-port="2" to-layer="196" to-port="0"/>
		<edge from-layer="190" from-port="2" to-layer="208" to-port="0"/>
		<edge from-layer="190" from-port="2" to-layer="202" to-port="0"/>
		<edge from-layer="190" from-port="2" to-layer="192" to-port="0"/>
		<edge from-layer="191" from-port="0" to-layer="192" to-port="1"/>
		<edge from-layer="192" from-port="2" to-layer="211" to-port="1"/>
		<edge from-layer="193" from-port="0" to-layer="195" to-port="1"/>
		<edge from-layer="194" from-port="0" to-layer="195" to-port="2"/>
		<edge from-layer="195" from-port="3" to-layer="196" to-port="1"/>
		<edge from-layer="196" from-port="2" to-layer="198" to-port="0"/>
		<edge from-layer="197" from-port="0" to-layer="198" to-port="1"/>
		<edge from-layer="198" from-port="2" to-layer="211" to-port="2"/>
		<edge from-layer="199" from-port="0" to-layer="201" to-port="1"/>
		<edge from-layer="200" from-port="0" to-layer="201" to-port="2"/>
		<edge from-layer="201" from-port="3" to-layer="202" to-port="1"/>
		<edge from-layer="202" from-port="2" to-layer="204" to-port="0"/>
		<edge from-layer="203" from-port="0" to-layer="204" to-port="1"/>
		<edge from-layer="204" from-port="2" to-layer="211" to-port="3"/>
		<edge from-layer="205" from-port="0" to-layer="207" to-port="1"/>
		<edge from-layer="206" from-port="0" to-layer="207" to-port="2"/>
		<edge from-layer="207" from-port="3" to-layer="208" to-port="1"/>
		<edge from-layer="208" from-port="2" to-layer="210" to-port="0"/>
		<edge from-layer="209" from-port="0" to-layer="210" to-port="1"/>
		<edge from-layer="210" from-port="2" to-layer="211" to-port="4"/>
		<edge from-layer="211" from-port="5" to-layer="216" to-port="0"/>
		<edge from-layer="211" from-port="5" to-layer="221" to-port="0"/>
		<edge from-layer="212" from-port="0" to-layer="215" to-port="1"/>
		<edge from-layer="213" from-port="0" to-layer="215" to-port="2"/>
		<edge from-layer="214" from-port="0" to-layer="215" to-port="3"/>
		<edge from-layer="215" from-port="4" to-layer="216" to-port="1"/>
		<edge from-layer="216" from-port="2" to-layer="220" to-port="0"/>
		<edge from-layer="217" from-port="0" to-layer="220" to-port="1"/>
		<edge from-layer="218" from-port="0" to-layer="220" to-port="2"/>
		<edge from-layer="219" from-port="0" to-layer="220" to-port="3"/>
		<edge from-layer="220" from-port="4" to-layer="221" to-port="1"/>
		<edge from-layer="221" from-port="2" to-layer="223" to-port="0"/>
		<edge from-layer="222" from-port="0" to-layer="223" to-port="1"/>
		<edge from-layer="223" from-port="2" to-layer="224" to-port="1"/>
		<edge from-layer="224" from-port="2" to-layer="226" to-port="0"/>
		<edge from-layer="225" from-port="0" to-layer="226" to-port="1"/>
		<edge from-layer="226" from-port="2" to-layer="252" to-port="0"/>
		<edge from-layer="227" from-port="0" to-layer="230" to-port="1"/>
		<edge from-layer="228" from-port="0" to-layer="230" to-port="2"/>
		<edge from-layer="229" from-port="0" to-layer="230" to-port="3"/>
		<edge from-layer="230" from-port="4" to-layer="232" to-port="0"/>
		<edge from-layer="231" from-port="0" to-layer="232" to-port="1"/>
		<edge from-layer="232" from-port="2" to-layer="234" to-port="0"/>
		<edge from-layer="233" from-port="0" to-layer="234" to-port="1"/>
		<edge from-layer="234" from-port="2" to-layer="236" to-port="0"/>
		<edge from-layer="235" from-port="0" to-layer="236" to-port="1"/>
		<edge from-layer="236" from-port="2" to-layer="238" to-port="0"/>
		<edge from-layer="237" from-port="0" to-layer="238" to-port="1"/>
		<edge from-layer="238" from-port="2" to-layer="239" to-port="0"/>
		<edge from-layer="239" from-port="2" to-layer="242" to-port="0"/>
		<edge from-layer="239" from-port="2" to-layer="249" to-port="0"/>
		<edge from-layer="240" from-port="0" to-layer="248" to-port="0"/>
		<edge from-layer="241" from-port="0" to-layer="247" to-port="0"/>
		<edge from-layer="242" from-port="1" to-layer="245" to-port="0"/>
		<edge from-layer="243" from-port="0" to-layer="245" to-port="1"/>
		<edge from-layer="244" from-port="0" to-layer="245" to-port="2"/>
		<edge from-layer="245" from-port="3" to-layer="247" to-port="1"/>
		<edge from-layer="246" from-port="0" to-layer="247" to-port="2"/>
		<edge from-layer="247" from-port="3" to-layer="248" to-port="1"/>
		<edge from-layer="248" from-port="2" to-layer="249" to-port="1"/>
		<edge from-layer="249" from-port="2" to-layer="251" to-port="0"/>
		<edge from-layer="250" from-port="0" to-layer="251" to-port="1"/>
		<edge from-layer="251" from-port="2" to-layer="252" to-port="1"/>
		<edge from-layer="252" from-port="2" to-layer="256" to-port="0"/>
		<edge from-layer="253" from-port="0" to-layer="256" to-port="1"/>
		<edge from-layer="254" from-port="0" to-layer="256" to-port="2"/>
		<edge from-layer="255" from-port="0" to-layer="256" to-port="3"/>
		<edge from-layer="256" from-port="4" to-layer="259" to-port="0"/>
		<edge from-layer="257" from-port="0" to-layer="259" to-port="1"/>
		<edge from-layer="258" from-port="0" to-layer="259" to-port="2"/>
		<edge from-layer="259" from-port="3" to-layer="261" to-port="0"/>
		<edge from-layer="259" from-port="3" to-layer="271" to-port="0"/>
		<edge from-layer="259" from-port="3" to-layer="425" to-port="0"/>
		<edge from-layer="260" from-port="0" to-layer="261" to-port="1"/>
		<edge from-layer="261" from-port="2" to-layer="264" to-port="0"/>
		<edge from-layer="262" from-port="0" to-layer="264" to-port="1"/>
		<edge from-layer="263" from-port="0" to-layer="264" to-port="2"/>
		<edge from-layer="264" from-port="3" to-layer="266" to-port="0"/>
		<edge from-layer="265" from-port="0" to-layer="266" to-port="1"/>
		<edge from-layer="266" from-port="2" to-layer="268" to-port="0"/>
		<edge from-layer="267" from-port="0" to-layer="268" to-port="1"/>
		<edge from-layer="268" from-port="2" to-layer="269" to-port="0"/>
		<edge from-layer="270" from-port="0" to-layer="271" to-port="1"/>
		<edge from-layer="271" from-port="2" to-layer="415" to-port="0"/>
		<edge from-layer="272" from-port="0" to-layer="411" to-port="0"/>
		<edge from-layer="273" from-port="0" to-layer="405" to-port="0"/>
		<edge from-layer="274" from-port="0" to-layer="303" to-port="0"/>
		<edge from-layer="275" from-port="0" to-layer="276" to-port="1"/>
		<edge from-layer="276" from-port="2" to-layer="279" to-port="0"/>
		<edge from-layer="277" from-port="0" to-layer="279" to-port="1"/>
		<edge from-layer="278" from-port="0" to-layer="279" to-port="2"/>
		<edge from-layer="279" from-port="3" to-layer="281" to-port="0"/>
		<edge from-layer="280" from-port="0" to-layer="281" to-port="1"/>
		<edge from-layer="281" from-port="2" to-layer="283" to-port="0"/>
		<edge from-layer="281" from-port="2" to-layer="292" to-port="0"/>
		<edge from-layer="282" from-port="0" to-layer="283" to-port="1"/>
		<edge from-layer="283" from-port="2" to-layer="284" to-port="0"/>
		<edge from-layer="283" from-port="2" to-layer="284" to-port="1"/>
		<edge from-layer="284" from-port="2" to-layer="286" to-port="0"/>
		<edge from-layer="285" from-port="0" to-layer="286" to-port="1"/>
		<edge from-layer="286" from-port="2" to-layer="287" to-port="0"/>
		<edge from-layer="287" from-port="1" to-layer="292" to-port="1"/>
		<edge from-layer="287" from-port="1" to-layer="305" to-port="0"/>
		<edge from-layer="287" from-port="1" to-layer="288" to-port="0"/>
		<edge from-layer="288" from-port="1" to-layer="290" to-port="0"/>
		<edge from-layer="289" from-port="0" to-layer="290" to-port="1"/>
		<edge from-layer="290" from-port="2" to-layer="302" to-port="0"/>
		<edge from-layer="291" from-port="0" to-layer="299" to-port="0"/>
		<edge from-layer="291" from-port="0" to-layer="299" to-port="4"/>
		<edge from-layer="291" from-port="0" to-layer="299" to-port="8"/>
		<edge from-layer="292" from-port="2" to-layer="295" to-port="0"/>
		<edge from-layer="293" from-port="0" to-layer="295" to-port="1"/>
		<edge from-layer="294" from-port="0" to-layer="295" to-port="2"/>
		<edge from-layer="295" from-port="4" to-layer="298" to-port="0"/>
		<edge from-layer="295" from-port="5" to-layer="299" to-port="3"/>
		<edge from-layer="295" from-port="4" to-layer="299" to-port="2"/>
		<edge from-layer="295" from-port="3" to-layer="299" to-port="7"/>
		<edge from-layer="295" from-port="5" to-layer="296" to-port="0"/>
		<edge from-layer="295" from-port="3" to-layer="297" to-port="0"/>
		<edge from-layer="296" from-port="1" to-layer="299" to-port="1"/>
		<edge from-layer="297" from-port="1" to-layer="299" to-port="5"/>
		<edge from-layer="298" from-port="1" to-layer="299" to-port="6"/>
		<edge from-layer="299" from-port="9" to-layer="301" to-port="0"/>
		<edge from-layer="300" from-port="0" to-layer="301" to-port="1"/>
		<edge from-layer="301" from-port="2" to-layer="309" to-port="0"/>
		<edge from-layer="301" from-port="2" to-layer="309" to-port="1"/>
		<edge from-layer="301" from-port="2" to-layer="302" to-port="1"/>
		<edge from-layer="302" from-port="2" to-layer="303" to-port="1"/>
		<edge from-layer="303" from-port="2" to-layer="311" to-port="0"/>
		<edge from-layer="304" from-port="0" to-layer="308" to-port="0"/>
		<edge from-layer="305" from-port="1" to-layer="307" to-port="0"/>
		<edge from-layer="306" from-port="0" to-layer="307" to-port="1"/>
		<edge from-layer="307" from-port="2" to-layer="308" to-port="1"/>
		<edge from-layer="308" from-port="2" to-layer="310" to-port="0"/>
		<edge from-layer="309" from-port="2" to-layer="310" to-port="1"/>
		<edge from-layer="310" from-port="2" to-layer="311" to-port="1"/>
		<edge from-layer="311" from-port="2" to-layer="313" to-port="0"/>
		<edge from-layer="312" from-port="0" to-layer="313" to-port="1"/>
		<edge from-layer="313" from-port="2" to-layer="316" to-port="0"/>
		<edge from-layer="313" from-port="2" to-layer="319" to-port="0"/>
		<edge from-layer="314" from-port="0" to-layer="316" to-port="1"/>
		<edge from-layer="315" from-port="0" to-layer="316" to-port="2"/>
		<edge from-layer="316" from-port="3" to-layer="340" to-port="0"/>
		<edge from-layer="317" from-port="0" to-layer="319" to-port="1"/>
		<edge from-layer="318" from-port="0" to-layer="319" to-port="2"/>
		<edge from-layer="319" from-port="3" to-layer="339" to-port="0"/>
		<edge from-layer="320" from-port="0" to-layer="328" to-port="0"/>
		<edge from-layer="320" from-port="0" to-layer="332" to-port="1"/>
		<edge from-layer="321" from-port="0" to-layer="327" to-port="0"/>
		<edge from-layer="322" from-port="0" to-layer="323" to-port="0"/>
		<edge from-layer="323" from-port="1" to-layer="325" to-port="0"/>
		<edge from-layer="324" from-port="0" to-layer="325" to-port="1"/>
		<edge from-layer="324" from-port="0" to-layer="326" to-port="1"/>
		<edge from-layer="325" from-port="2" to-layer="326" to-port="0"/>
		<edge from-layer="326" from-port="2" to-layer="327" to-port="1"/>
		<edge from-layer="326" from-port="2" to-layer="330" to-port="0"/>
		<edge from-layer="326" from-port="2" to-layer="333" to-port="0"/>
		<edge from-layer="326" from-port="2" to-layer="333" to-port="1"/>
		<edge from-layer="327" from-port="2" to-layer="328" to-port="1"/>
		<edge from-layer="328" from-port="2" to-layer="331" to-port="0"/>
		<edge from-layer="329" from-port="0" to-layer="330" to-port="1"/>
		<edge from-layer="330" from-port="2" to-layer="331" to-port="1"/>
		<edge from-layer="331" from-port="2" to-layer="332" to-port="0"/>
		<edge from-layer="332" from-port="2" to-layer="334" to-port="0"/>
		<edge from-layer="333" from-port="2" to-layer="334" to-port="1"/>
		<edge from-layer="334" from-port="2" to-layer="336" to-port="0"/>
		<edge from-layer="335" from-port="0" to-layer="336" to-port="1"/>
		<edge from-layer="336" from-port="2" to-layer="338" to-port="0"/>
		<edge from-layer="337" from-port="0" to-layer="338" to-port="1"/>
		<edge from-layer="338" from-port="2" to-layer="339" to-port="1"/>
		<edge from-layer="339" from-port="2" to-layer="340" to-port="1"/>
		<edge from-layer="340" from-port="2" to-layer="343" to-port="0"/>
		<edge from-layer="340" from-port="2" to-layer="350" to-port="0"/>
		<edge from-layer="340" from-port="2" to-layer="356" to-port="0"/>
		<edge from-layer="340" from-port="2" to-layer="363" to-port="0"/>
		<edge from-layer="340" from-port="2" to-layer="369" to-port="0"/>
		<edge from-layer="341" from-port="0" to-layer="343" to-port="1"/>
		<edge from-layer="342" from-port="0" to-layer="343" to-port="2"/>
		<edge from-layer="343" from-port="3" to-layer="346" to-port="0"/>
		<edge from-layer="344" from-port="0" to-layer="346" to-port="1"/>
		<edge from-layer="345" from-port="0" to-layer="346" to-port="2"/>
		<edge from-layer="346" from-port="3" to-layer="347" to-port="0"/>
		<edge from-layer="347" from-port="1" to-layer="378" to-port="0"/>
		<edge from-layer="348" from-port="0" to-layer="350" to-port="1"/>
		<edge from-layer="349" from-port="0" to-layer="350" to-port="2"/>
		<edge from-layer="350" from-port="3" to-layer="353" to-port="0"/>
		<edge from-layer="351" from-port="0" to-layer="353" to-port="1"/>
		<edge from-layer="352" from-port="0" to-layer="353" to-port="2"/>
		<edge from-layer="353" from-port="3" to-layer="360" to-port="0"/>
		<edge from-layer="354" from-port="0" to-layer="356" to-port="1"/>
		<edge from-layer="355" from-port="0" to-layer="356" to-port="2"/>
		<edge from-layer="356" from-port="3" to-layer="359" to-port="0"/>
		<edge from-layer="357" from-port="0" to-layer="359" to-port="1"/>
		<edge from-layer="358" from-port="0" to-layer="359" to-port="2"/>
		<edge from-layer="359" from-port="3" to-layer="360" to-port="1"/>
		<edge from-layer="360" from-port="2" to-layer="374" to-port="0"/>
		<edge from-layer="361" from-port="0" to-layer="363" to-port="1"/>
		<edge from-layer="362" from-port="0" to-layer="363" to-port="2"/>
		<edge from-layer="363" from-port="3" to-layer="366" to-port="0"/>
		<edge from-layer="364" from-port="0" to-layer="366" to-port="1"/>
		<edge from-layer="365" from-port="0" to-layer="366" to-port="2"/>
		<edge from-layer="366" from-port="3" to-layer="373" to-port="0"/>
		<edge from-layer="367" from-port="0" to-layer="369" to-port="1"/>
		<edge from-layer="368" from-port="0" to-layer="369" to-port="2"/>
		<edge from-layer="369" from-port="3" to-layer="372" to-port="0"/>
		<edge from-layer="370" from-port="0" to-layer="372" to-port="1"/>
		<edge from-layer="371" from-port="0" to-layer="372" to-port="2"/>
		<edge from-layer="372" from-port="3" to-layer="373" to-port="1"/>
		<edge from-layer="373" from-port="2" to-layer="374" to-port="1"/>
		<edge from-layer="374" from-port="2" to-layer="375" to-port="0"/>
		<edge from-layer="375" from-port="1" to-layer="377" to-port="0"/>
		<edge from-layer="376" from-port="0" to-layer="377" to-port="1"/>
		<edge from-layer="377" from-port="2" to-layer="378" to-port="1"/>
		<edge from-layer="378" from-port="2" to-layer="379" to-port="0"/>
		<edge from-layer="379" from-port="1" to-layer="381" to-port="0"/>
		<edge from-layer="380" from-port="0" to-layer="381" to-port="1"/>
		<edge from-layer="381" from-port="2" to-layer="382" to-port="0"/>
		<edge from-layer="382" from-port="1" to-layer="383" to-port="0"/>
		<edge from-layer="383" from-port="1" to-layer="384" to-port="0"/>
		<edge from-layer="384" from-port="1" to-layer="386" to-port="0"/>
		<edge from-layer="384" from-port="1" to-layer="389" to-port="0"/>
		<edge from-layer="384" from-port="1" to-layer="396" to-port="1"/>
		<edge from-layer="384" from-port="1" to-layer="402" to-port="1"/>
		<edge from-layer="385" from-port="0" to-layer="386" to-port="1"/>
		<edge from-layer="386" from-port="2" to-layer="387" to-port="0"/>
		<edge from-layer="387" from-port="1" to-layer="399" to-port="0"/>
		<edge from-layer="387" from-port="1" to-layer="401" to-port="1"/>
		<edge from-layer="388" from-port="0" to-layer="389" to-port="1"/>
		<edge from-layer="389" from-port="2" to-layer="390" to-port="0"/>
		<edge from-layer="390" from-port="1" to-layer="392" to-port="0"/>
		<edge from-layer="390" from-port="1" to-layer="394" to-port="1"/>
		<edge from-layer="391" from-port="0" to-layer="392" to-port="1"/>
		<edge from-layer="392" from-port="2" to-layer="398" to-port="0"/>
		<edge from-layer="393" from-port="0" to-layer="394" to-port="0"/>
		<edge from-layer="394" from-port="2" to-layer="397" to-port="0"/>
		<edge from-layer="395" from-port="0" to-layer="396" to-port="0"/>
		<edge from-layer="396" from-port="2" to-layer="397" to-port="1"/>
		<edge from-layer="397" from-port="2" to-layer="398" to-port="1"/>
		<edge from-layer="398" from-port="2" to-layer="399" to-port="1"/>
		<edge from-layer="399" from-port="2" to-layer="403" to-port="0"/>
		<edge from-layer="400" from-port="0" to-layer="401" to-port="0"/>
		<edge from-layer="401" from-port="2" to-layer="402" to-port="0"/>
		<edge from-layer="402" from-port="2" to-layer="403" to-port="1"/>
		<edge from-layer="403" from-port="2" to-layer="405" to-port="1"/>
		<edge from-layer="403" from-port="2" to-layer="420" to-port="1"/>
		<edge from-layer="404" from-port="0" to-layer="405" to-port="2"/>
		<edge from-layer="405" from-port="3" to-layer="407" to-port="0"/>
		<edge from-layer="406" from-port="0" to-layer="407" to-port="1"/>
		<edge from-layer="407" from-port="2" to-layer="409" to-port="0"/>
		<edge from-layer="408" from-port="0" to-layer="409" to-port="1"/>
		<edge from-layer="409" from-port="2" to-layer="411" to-port="1"/>
		<edge from-layer="410" from-port="0" to-layer="411" to-port="2"/>
		<edge from-layer="411" from-port="3" to-layer="413" to-port="0"/>
		<edge from-layer="412" from-port="0" to-layer="413" to-port="1"/>
		<edge from-layer="413" from-port="2" to-layer="415" to-port="1"/>
		<edge from-layer="414" from-port="0" to-layer="415" to-port="2"/>
		<edge from-layer="415" from-port="3" to-layer="417" to-port="0"/>
		<edge from-layer="416" from-port="0" to-layer="417" to-port="1"/>
		<edge from-layer="417" from-port="2" to-layer="423" to-port="0"/>
		<edge from-layer="418" from-port="0" to-layer="420" to-port="0"/>
		<edge from-layer="419" from-port="0" to-layer="420" to-port="2"/>
		<edge from-layer="420" from-port="3" to-layer="422" to-port="0"/>
		<edge from-layer="421" from-port="0" to-layer="422" to-port="1"/>
		<edge from-layer="422" from-port="2" to-layer="423" to-port="1"/>
		<edge from-layer="423" from-port="2" to-layer="424" to-port="0"/>
	</edges>
	<meta_data>
		<MO_version value="custom_master_fc1157cf68f61a93147471733baf54fbfe6180d6"/>
		<Runtime_version value="custom_master_fc1157cf68f61a93147471733baf54fbfe6180d6"/>
		<legacy_path value="False"/>
		<cli_parameters>
			<caffe_parser_path value="DIR"/>
			<compress_fp16 value="False"/>
			<data_type value="float"/>
			<disable_nhwc_to_nchw value="False"/>
			<disable_omitting_optional value="False"/>
			<disable_resnet_optimization value="False"/>
			<disable_weights_compression value="False"/>
			<enable_concat_optimization value="False"/>
			<enable_flattening_nested_params value="False"/>
			<enable_ssd_gluoncv value="False"/>
			<extensions value="DIR"/>
			<framework value="onnx"/>
			<freeze_placeholder_with_value value="{}"/>
			<generate_deprecated_IR_V7 value="False"/>
			<input_model value="DIR\flame.onnx"/>
			<input_model_is_text value="False"/>
			<k value="DIR\CustomLayersMapping.xml"/>
			<keep_shape_ops value="True"/>
			<layout value="()"/>
			<layout_values value="{}"/>
			<legacy_ir_generation value="False"/>
			<legacy_mxnet_model value="False"/>
			<log_level value="ERROR"/>
			<mean_scale_values value="{}"/>
			<mean_values value="()"/>
			<model_name value="flame"/>
			<output_dir value="DIR"/>
			<placeholder_data_types value="{}"/>
			<progress value="False"/>
			<remove_memory value="False"/>
			<remove_output_softmax value="False"/>
			<reverse_input_channels value="False"/>
			<save_params_from_nd value="False"/>
			<scale_values value="()"/>
			<silent value="False"/>
			<source_layout value="()"/>
			<static_shape value="False"/>
			<stream_output value="False"/>
			<target_layout value="()"/>
			<transform value=""/>
			<use_legacy_frontend value="False"/>
			<use_new_frontend value="False"/>
			<unset unset_cli_parameters="batch, counts, disable_fusing, disable_gfusing, finegrain_fusing, input, input_checkpoint, input_meta_graph, input_proto, input_shape, input_symbol, mean_file, mean_file_offsets, move_to_preprocess, nd_prefix_name, output, placeholder_shapes, pretrained_model_name, saved_model_dir, saved_model_tags, scale, tensorboard_logdir, tensorflow_custom_layer_libraries, tensorflow_custom_operations_config_update, tensorflow_object_detection_api_pipeline_config, tensorflow_use_custom_operations_config, transformations_config"/>
		</cli_parameters>
	</meta_data>
</net>
